============================= test session starts ==============================
platform darwin -- Python 3.12.10, pytest-9.0.2, pluggy-1.6.0 -- /Users/hellorahul/Projects/keras-hub-test-env/bin/python3
cachedir: .pytest_cache
benchmark: 5.2.3 (defaults: timer=time.perf_counter disable_gc=False min_rounds=5 min_time=0.000005 max_time=1.0 calibration_precision=10 warmup=False warmup_iterations=100000)
metadata: {'Python': '3.12.10', 'Platform': 'macOS-15.7.4-arm64-arm-64bit', 'Packages': {'pytest': '9.0.2', 'pluggy': '1.6.0'}, 'Plugins': {'anyio': '4.12.1', 'benchmark': '5.2.3', 'mock': '3.15.1', 'jaxtyping': '0.3.9', 'betamax': '0.9.0', 'xdist': '3.8.0', 'metadata': '3.1.1', 'html': '4.2.0', 'asyncio': '1.3.0', 'Faker': '40.1.2', 'cov': '7.0.0'}}
rootdir: /Users/hellorahul/Projects/keras-hub
configfile: pyproject.toml
plugins: anyio-4.12.1, benchmark-5.2.3, mock-3.15.1, jaxtyping-0.3.9, betamax-0.9.0, xdist-3.8.0, metadata-3.1.1, html-4.2.0, asyncio-1.3.0, Faker-40.1.2, cov-7.0.0
asyncio: mode=Mode.STRICT, debug=False, asyncio_default_fixture_loop_scope=None, asyncio_default_test_loop_scope=function
collecting ... collected 523 items / 454 deselected / 69 selected

keras_hub/src/models/llama3/llama3_causal_lm_test.py::Llama3CausalLMTest::test_litert_export PASSED [  1%]
keras_hub/src/models/densenet/densenet_image_classifier_test.py::DenseNetImageClassifierTest::test_litert_export PASSED [  2%]
keras_hub/src/models/albert/albert_text_classifier_test.py::AlbertTextClassifierTest::test_litert_export PASSED [  4%]
keras_hub/src/models/mobilenet/mobilenet_image_classifier_test.py::MobileNetImageClassifierTest::test_litert_export PASSED [  5%]
keras_hub/src/models/mobilenet/mobilenet_backbone_test.py::MobileNetBackboneTest::test_litert_export PASSED [  7%]
keras_hub/src/models/gpt_oss/gpt_oss_causal_lm_test.py::GptOssCausalLMTest::test_litert_export FAILED [  8%]
keras_hub/src/models/gemma/gemma_causal_lm_test.py::GemmaCausalLMTest::test_litert_export PASSED [ 10%]
keras_hub/src/models/mobilenetv5/mobilenetv5_image_classifier_test.py::MobileNetV5ImageClassifierTest::test_litert_export PASSED [ 11%]
keras_hub/src/models/hgnetv2/hgnetv2_image_classifier_test.py::HGNetV2ImageClassifierTest::test_litert_export PASSED [ 13%]
keras_hub/src/models/electra/electra_backbone_test.py::ElectraBackboneTest::test_litert_export PASSED [ 14%]
keras_hub/src/models/roformer_v2/roformer_v2_text_classifier_test.py::RoformerVTextClassifierTest::test_litert_export PASSED [ 15%]
keras_hub/src/models/cspnet/cspnet_image_classifier_test.py::CSPNetImageClassifierTest::test_litert_export PASSED [ 17%]
keras_hub/src/models/mixtral/mixtral_causal_lm_test.py::MixtralCausalLMTest::test_litert_export PASSED [ 18%]
keras_hub/src/models/sam/sam_image_segmenter_test.py::SAMImageSegmenterTest::test_litert_export SKIPPED [ 20%]
keras_hub/src/models/distil_bert/distil_bert_text_classifier_test.py::DistilBertTextClassifierTest::test_litert_export PASSED [ 21%]
keras_hub/src/models/flux/flux_backbone_test.py::FluxBackboneTest::test_litert_export FAILED [ 23%]
keras_hub/src/models/phi3/phi3_causal_lm_test.py::Phi3CausalLMTest::test_litert_export PASSED [ 24%]
keras_hub/src/models/gemma3/gemma3_causal_lm_test.py::Gemma3CausalLMTest::test_litert_export PASSED [ 26%]
keras_hub/src/models/gemma3/gemma3_causal_lm_test.py::Gemma3CausalLMTest::test_litert_export_multimodal SKIPPED [ 27%]
keras_hub/src/models/esm/esm_classifier_test.py::ESMProteinClassifierTest::test_litert_export PASSED [ 28%]
keras_hub/src/models/clip/clip_backbone_test.py::CLIPBackboneTest::test_litert_export PASSED [ 30%]
keras_hub/src/models/t5gemma/t5gemma_seq_2_seq_lm_test.py::T5GemmaSeq2SeqLMTest::test_litert_export PASSED [ 31%]
keras_hub/src/models/vit_det/vit_det_backbone_test.py::ViTDetBackboneTest::test_litert_export PASSED [ 33%]
keras_hub/src/models/resnet/resnet_image_classifier_test.py::ResNetImageClassifierTest::test_litert_export PASSED [ 34%]
keras_hub/src/models/qwen3/qwen3_causal_lm_test.py::Qwen3CausalLMTest::test_litert_export PASSED [ 36%]
keras_hub/src/models/f_net/f_net_text_classifier_test.py::FNetTextClassifierTest::test_litert_export FAILED [ 37%]
keras_hub/src/models/t5/t5_backbone_test.py::T5BackboneTest::test_litert_export PASSED [ 39%]
keras_hub/src/models/qwen/qwen_causal_lm_test.py::QwenCausalLMTest::test_litert_export PASSED [ 40%]
keras_hub/src/models/deeplab_v3/deeplab_v3_segmenter_test.py::DeepLabV3ImageSegmenterTest::test_litert_export SKIPPED [ 42%]
keras_hub/src/models/bloom/bloom_causal_lm_test.py::BloomCausalLMTest::test_litert_export PASSED [ 43%]
keras_hub/src/models/xlm_roberta/xlm_roberta_text_classifier_test.py::XLMRobertaTextClassifierTest::test_litert_export PASSED [ 44%]
keras_hub/src/models/efficientnet/efficientnet_image_classifier_test.py::EfficientNetImageClassifierTest::test_litert_export PASSED [ 46%]
keras_hub/src/models/deit/deit_image_classifier_test.py::DeiTImageClassifierTest::test_litert_export PASSED [ 47%]
keras_hub/src/models/siglip/siglip_backbone_test.py::SigLIPBackboneTest::test_litert_export PASSED [ 49%]
keras_hub/src/models/siglip/siglip_backbone_test.py::SigLIP2BackboneTest::test_litert_export PASSED [ 50%]
keras_hub/src/models/moonshine/moonshine_audio_to_text_test.py::MoonshineAudioToTextTest::test_litert_export SKIPPED [ 52%]
keras_hub/src/models/bart/bart_seq_2_seq_lm_test.py::BartSeq2SeqLMTest::test_litert_export PASSED [ 53%]
keras_hub/src/models/video_prism/video_prism_backbone_test.py::VideoPrismBackboneVideoOnlyTest::test_litert_export PASSED [ 55%]
keras_hub/src/models/video_prism/video_prism_backbone_test.py::VideoPrismBackboneTest::test_litert_export PASSED [ 56%]
keras_hub/src/models/qwen_moe/qwen_moe_causal_lm_test.py::QwenMoeCausalLMTest::test_litert_export PASSED [ 57%]
keras_hub/src/models/d_fine/d_fine_object_detector_test.py::DFineObjectDetectorTest::test_litert_export FAILED [ 59%]
keras_hub/src/models/vit/vit_image_classifier_test.py::ViTImageClassifierTest::test_litert_export PASSED [ 60%]
keras_hub/src/models/bert/bert_text_classifier_test.py::BertTextClassifierTest::test_litert_export PASSED [ 62%]
keras_hub/src/models/retinanet/retinanet_object_detector_test.py::RetinaNetObjectDetectorTest::test_litert_export PASSED [ 63%]
keras_hub/src/models/gpt_neo_x/gpt_neo_x_causal_lm_test.py::GPTNeoXCausalLMTest::test_litert_export SKIPPED [ 65%]
keras_hub/src/models/opt/opt_causal_lm_test.py::OPTCausalLMTest::test_litert_export PASSED [ 66%]
keras_hub/src/models/stable_diffusion_3/stable_diffusion_3_text_to_image_test.py::StableDiffusion3TextToImageTest::test_litert_export SKIPPED [ 68%]
keras_hub/src/models/depth_anything/depth_anything_depth_estimator_test.py::DepthAnythingDepthEstimatorTest::test_litert_export PASSED [ 69%]
keras_hub/src/models/roberta/roberta_text_classifier_test.py::RobertaTextClassifierTest::test_litert_export PASSED [ 71%]
keras_hub/src/models/pali_gemma/pali_gemma_causal_lm_test.py::PaliGemmaCausalLMTest::test_litert_export PASSED [ 72%]
keras_hub/src/models/basnet/basnet_test.py::BASNetTest::test_litert_export SKIPPED [ 73%]
keras_hub/src/models/xception/xception_image_classifier_test.py::XceptionImageClassifierTest::test_litert_export PASSED [ 75%]
keras_hub/src/models/xlnet/xlnet_backbone_test.py::XLNetTest::test_litert_export PASSED [ 76%]
keras_hub/src/models/deberta_v3/deberta_v3_text_classifier_test.py::DebertaV3TextClassifierTest::test_litert_export PASSED [ 78%]
keras_hub/src/models/gpt2/gpt2_causal_lm_test.py::GPT2CausalLMTest::test_litert_export PASSED [ 79%]
keras_hub/src/models/sam3/sam3_pc_image_segmenter_test.py::SAM3PromptableConceptImageSegmenterTest::test_litert_export FAILED [ 81%]
keras_hub/src/models/falcon/falcon_causal_lm_test.py::FalconCausalLMTest::test_litert_export PASSED [ 82%]
keras_hub/src/models/smollm3/smollm3_causal_lm_test.py::SmolLM3CausalLMTest::test_litert_export PASSED [ 84%]
keras_hub/src/models/dinov3/dinov3_backbone_test.py::DINOV3BackboneTest::test_litert_export PASSED [ 85%]
keras_hub/src/models/parseq/parseq_causal_lm_test.py::PARSeqCausalLMTest::test_litert_export PASSED [ 86%]
keras_hub/src/models/mistral/mistral_causal_lm_test.py::MistralCausalLMTest::test_litert_export PASSED [ 88%]
keras_hub/src/models/vgg/vgg_image_classifier_test.py::VGGImageClassifierTest::test_litert_export SKIPPED [ 89%]
keras_hub/src/models/mit/mit_image_classifier_test.py::MiTImageClassifierTest::test_litert_export PASSED [ 91%]
keras_hub/src/models/dinov2/dinov2_backbone_test.py::DINOV2BackboneTest::test_litert_export PASSED [ 92%]
keras_hub/src/models/dinov2/dinov2_backbone_test.py::DINOV2BackboneWithRegistersTest::test_litert_export PASSED [ 94%]
keras_hub/src/models/llama/llama_causal_lm_test.py::LlamaCausalLMTest::test_litert_export PASSED [ 95%]
keras_hub/src/models/whisper/whisper_backbone_test.py::WhisperBackboneTest::test_litert_export PASSED [ 97%]
keras_hub/src/models/vae/vae_backbone_test.py::VAEBackboneTest::test_litert_export FAILED [ 98%]
keras_hub/src/models/qwen3_moe/qwen3_moe_causal_lm_test.py::Qwen3MoeCausalLMTest::test_litert_export PASSED [100%]

=================================== FAILURES ===================================
____________________ GptOssCausalLMTest.test_litert_export _____________________

model = <GptOssCausalLM name=gpt_oss_causal_lm, built=True>
filepath = '/var/folders/kk/6bvt2y611ns5qk0zdmww21x801b8p6/T/tmpfdrd51qi/model.tflite'
input_signature = [{'padding_mask': InputSpec(dtype=bool, shape=(2, 8), ndim=2), 'token_ids': InputSpec(dtype=int32, shape=(2, 8), ndim=2)}]
verbose = None, kwargs = {}
litert_torch = <module 'litert_torch' from '/Users/hellorahul/Projects/keras-hub-test-env/lib/python3.12/site-packages/litert_torch/__init__.py'>
torch = <module 'torch' from '/Users/hellorahul/Projects/keras-hub-test-env/lib/python3.12/site-packages/torch/__init__.py'>
original_devices = {('var', 'sequence_output_layernorm/scale'): 'mps:0', ('var', 'token_embedding/embeddings'): 'mps:0', ('var', 'token_embedding/reverse_embeddings'): 'mps:0', ('var', 'transformer_layer_0/input_layernorm/scale'): 'mps:0', ...}
device_scope = <function device_scope at 0x146833060>
sample_inputs = ({'padding_mask': tensor([[True, True, True, True, True, True, True, True],
        [True, True, True, True, True, True, True, True]]), 'token_ids': tensor([[1, 1, 1, 1, 1, 1, 1, 1],
        [1, 1, 1, 1, 1, 1, 1, 1]], dtype=torch.int32)},)
litert_torch_kwargs = {}

    def export_litert_via_torch(
        model, filepath, input_signature=None, verbose=None, **kwargs
    ):
        """Export Keras model to LiteRT via PyTorch backend.
    
        This function handles the complete conversion pipeline:
        1. Move model to CPU (required for portable ops)
        2. Register decompositions for unsupported operations
        3. Patch VHLO version for TFLite converter compatibility
        4. Convert model using litert_torch
        5. Restore model to original device
    
        Args:
            model: Keras model to export.
            filepath: Path to save the .tflite model.
            input_signature: Optional input specification.
            verbose: Whether to print export messages.
            **kwargs: Additional arguments for litert_torch conversion.
    
        Returns:
            Path to the exported model.
        """
        try:
            import litert_torch
            import torch
        except ImportError:
            raise ImportError(
                "To export to LiteRT with the PyTorch backend, "
                "you must install the `litert-torch` package. "
                "Install via: pip install litert-torch"
            )
    
        from keras.src.export.export_utils import convert_spec_to_tensor
    
        # Track original devices for restoration
        original_devices = {}
    
        # Step 1: Move model to CPU for portable export
        _move_model_to_cpu(model, original_devices, torch)
    
        # Use CPU device scope for all conversions
        from keras.src.backend.torch.core import device_scope
    
        with device_scope("cpu"):
            # Step 2: Setup decompositions and version compatibility
            _register_litert_decompositions(torch, litert_torch)
            _patch_vhlo_target_version()
    
            # Step 3: Prepare sample inputs
            if input_signature is None:
                input_signature = get_input_signature(model)
    
            sample_inputs = tree.map_structure(
                lambda x: convert_spec_to_tensor(x, replace_none_number=1),
                input_signature,
            )
            sample_inputs = tree.map_structure(
                lambda t: t.cpu() if hasattr(t, "cpu") else t,
                sample_inputs,
            )
            sample_inputs = tuple(sample_inputs)
    
            # Step 4: Set model to eval mode
            if hasattr(model, "eval"):
                model.eval()
    
            # Step 5: Convert to LiteRT
            litert_torch_kwargs = _prepare_litert_kwargs(kwargs, litert_torch)
    
            try:
                try:
>                   edge_model = litert_torch.convert(
                        model, sample_inputs, **litert_torch_kwargs
                    )

../keras/keras/src/export/litert.py:340: 
_ _ _ _ _ _ _ _ _ _ _ _ _ _ _ _ _ _ _ _ _ _ _ _ _ _ _ _ _ _ _ _ _ _ _ _ _ _ _ _ 
../keras-hub-test-env/lib/python3.12/site-packages/litert_torch/_convert/converter.py:315: in convert
    return Converter().convert(
../keras-hub-test-env/lib/python3.12/site-packages/litert_torch/_convert/converter.py:203: in convert
    converted_model = conversion.convert_signatures(
../keras-hub-test-env/lib/python3.12/site-packages/litert_torch/_convert/conversion.py:151: in convert_signatures
    exported_programs = list(map(_run_convert_passes, exported_programs))
                        ^^^^^^^^^^^^^^^^^^^^^^^^^^^^^^^^^^^^^^^^^^^^^^^^^
../keras-hub-test-env/lib/python3.12/site-packages/litert_torch/_convert/conversion.py:57: in _run_convert_passes
    exported_program = fx_infra.run_passes(exported_program, passes)
                       ^^^^^^^^^^^^^^^^^^^^^^^^^^^^^^^^^^^^^^^^^^^^^
../keras-hub-test-env/lib/python3.12/site-packages/litert_torch/fx_infra/pass_base.py:66: in run_passes
    exported_program = pass_(exported_program).exported_program
                       ^^^^^^^^^^^^^^^^^^^^^^^
../keras-hub-test-env/lib/python3.12/site-packages/litert_torch/fx_infra/pass_base.py:39: in __call__
    res = self.call(exported_program)
          ^^^^^^^^^^^^^^^^^^^^^^^^^^^
../keras-hub-test-env/lib/python3.12/site-packages/litert_torch/_convert/fx_passes/optimize_layout_transposes_pass/pass_body.py:290: in call
    layout_rewrite.rewrite_nhwc_node(node)
../keras-hub-test-env/lib/python3.12/site-packages/litert_torch/_convert/fx_passes/optimize_layout_transposes_pass/layout_rewrite.py:49: in rewrite_nhwc_node
    rewriters[node.target](node)
_ _ _ _ _ _ _ _ _ _ _ _ _ _ _ _ _ _ _ _ _ _ _ _ _ _ _ _ _ _ _ _ _ _ _ _ _ _ _ _ 

node = amax

    def _rewriter(node):
>     raise RuntimeError(f"NHWC node rewriter not found: {str(node)}")
E     RuntimeError: NHWC node rewriter not found: amax

../keras-hub-test-env/lib/python3.12/site-packages/litert_torch/_convert/fx_passes/optimize_layout_transposes_pass/layout_rewrite.py:37: RuntimeError

The above exception was the direct cause of the following exception:

self = <keras_hub.src.models.gpt_oss.gpt_oss_causal_lm_test.GptOssCausalLMTest testMethod=test_litert_export>

    def test_litert_export(self):
>       self.run_litert_export_test(
            cls=GptOssCausalLM,
            init_kwargs=self.init_kwargs,
            input_data=self.input_data,
        )

keras_hub/src/models/gpt_oss/gpt_oss_causal_lm_test.py:112: 
_ _ _ _ _ _ _ _ _ _ _ _ _ _ _ _ _ _ _ _ _ _ _ _ _ _ _ _ _ _ _ _ _ _ _ _ _ _ _ _ 
keras_hub/src/tests/test_case.py:673: in run_litert_export_test
    model.export(export_path, format="litert", **export_kwargs)
../keras/keras/src/models/model.py:823: in export
    export_litert(
../keras/keras/src/export/litert.py:27: in export_litert
    return export_litert_via_torch(
_ _ _ _ _ _ _ _ _ _ _ _ _ _ _ _ _ _ _ _ _ _ _ _ _ _ _ _ _ _ _ _ _ _ _ _ _ _ _ _ 

model = <GptOssCausalLM name=gpt_oss_causal_lm, built=True>
filepath = '/var/folders/kk/6bvt2y611ns5qk0zdmww21x801b8p6/T/tmpfdrd51qi/model.tflite'
input_signature = [{'padding_mask': InputSpec(dtype=bool, shape=(2, 8), ndim=2), 'token_ids': InputSpec(dtype=int32, shape=(2, 8), ndim=2)}]
verbose = None, kwargs = {}
litert_torch = <module 'litert_torch' from '/Users/hellorahul/Projects/keras-hub-test-env/lib/python3.12/site-packages/litert_torch/__init__.py'>
torch = <module 'torch' from '/Users/hellorahul/Projects/keras-hub-test-env/lib/python3.12/site-packages/torch/__init__.py'>
original_devices = {('var', 'sequence_output_layernorm/scale'): 'mps:0', ('var', 'token_embedding/embeddings'): 'mps:0', ('var', 'token_embedding/reverse_embeddings'): 'mps:0', ('var', 'transformer_layer_0/input_layernorm/scale'): 'mps:0', ...}
device_scope = <function device_scope at 0x146833060>
sample_inputs = ({'padding_mask': tensor([[True, True, True, True, True, True, True, True],
        [True, True, True, True, True, True, True, True]]), 'token_ids': tensor([[1, 1, 1, 1, 1, 1, 1, 1],
        [1, 1, 1, 1, 1, 1, 1, 1]], dtype=torch.int32)},)
litert_torch_kwargs = {}

    def export_litert_via_torch(
        model, filepath, input_signature=None, verbose=None, **kwargs
    ):
        """Export Keras model to LiteRT via PyTorch backend.
    
        This function handles the complete conversion pipeline:
        1. Move model to CPU (required for portable ops)
        2. Register decompositions for unsupported operations
        3. Patch VHLO version for TFLite converter compatibility
        4. Convert model using litert_torch
        5. Restore model to original device
    
        Args:
            model: Keras model to export.
            filepath: Path to save the .tflite model.
            input_signature: Optional input specification.
            verbose: Whether to print export messages.
            **kwargs: Additional arguments for litert_torch conversion.
    
        Returns:
            Path to the exported model.
        """
        try:
            import litert_torch
            import torch
        except ImportError:
            raise ImportError(
                "To export to LiteRT with the PyTorch backend, "
                "you must install the `litert-torch` package. "
                "Install via: pip install litert-torch"
            )
    
        from keras.src.export.export_utils import convert_spec_to_tensor
    
        # Track original devices for restoration
        original_devices = {}
    
        # Step 1: Move model to CPU for portable export
        _move_model_to_cpu(model, original_devices, torch)
    
        # Use CPU device scope for all conversions
        from keras.src.backend.torch.core import device_scope
    
        with device_scope("cpu"):
            # Step 2: Setup decompositions and version compatibility
            _register_litert_decompositions(torch, litert_torch)
            _patch_vhlo_target_version()
    
            # Step 3: Prepare sample inputs
            if input_signature is None:
                input_signature = get_input_signature(model)
    
            sample_inputs = tree.map_structure(
                lambda x: convert_spec_to_tensor(x, replace_none_number=1),
                input_signature,
            )
            sample_inputs = tree.map_structure(
                lambda t: t.cpu() if hasattr(t, "cpu") else t,
                sample_inputs,
            )
            sample_inputs = tuple(sample_inputs)
    
            # Step 4: Set model to eval mode
            if hasattr(model, "eval"):
                model.eval()
    
            # Step 5: Convert to LiteRT
            litert_torch_kwargs = _prepare_litert_kwargs(kwargs, litert_torch)
    
            try:
                try:
                    edge_model = litert_torch.convert(
                        model, sample_inputs, **litert_torch_kwargs
                    )
                except Exception as e:
>                   raise RuntimeError(
                        f"Failed to convert PyTorch model to LiteRT. "
                        f"Common causes: unsupported operations, dynamic shapes, "
                        f"or complex control flow. Original error: {e}"
                    ) from e
E                   RuntimeError: Failed to convert PyTorch model to LiteRT. Common causes: unsupported operations, dynamic shapes, or complex control flow. Original error: NHWC node rewriter not found: amax

../keras/keras/src/export/litert.py:344: RuntimeError
_____________________ FluxBackboneTest.test_litert_export ______________________

self = <torch.fx.experimental.proxy_tensor._ModuleStackTracer object at 0x3e31fede0>
mod = <SingleStreamBlock name=single_stream_block, built=True>

    def path_of_module(self, mod: Module) -> str:
        """
        Use tracked access path during tracing instead of the default BFS behavior.
        Still use all the possible module paths to verify the result.
        """
        if mod is self.scope_root:
            return ""
    
        if isinstance(mod, _AttrProxy):
            return self.proxy_paths[mod]
    
        try:
>           return Tracer.path_of_module(self, mod)
                   ^^^^^^^^^^^^^^^^^^^^^^^^^^^^^^^^

../keras-hub-test-env/lib/python3.12/site-packages/torch/fx/experimental/proxy_tensor.py:1882: 
_ _ _ _ _ _ _ _ _ _ _ _ _ _ _ _ _ _ _ _ _ _ _ _ _ _ _ _ _ _ _ _ _ _ _ _ _ _ _ _ 

self = <torch.fx.experimental.proxy_tensor._ModuleStackTracer object at 0x3e31fede0>
mod = <SingleStreamBlock name=single_stream_block, built=True>

    @compatibility(is_backward_compatible=True)
    def path_of_module(self, mod: torch.nn.Module) -> str:
        """
        Helper method to find the qualified name of ``mod`` in the Module hierarchy
        of ``root``. For example, if ``root`` has a submodule named ``foo``, which has
        a submodule named ``bar``, passing ``bar`` into this function will return
        the string "foo.bar".
    
        Args:
    
            mod (str): The ``Module`` to retrieve the qualified name for.
        """
        # Prefer the O(1) algorithm
        if self.submodule_paths:
            path = self.submodule_paths.get(mod)
            if path is None:
>               raise NameError("module is not installed as a submodule")
E               NameError: module is not installed as a submodule

../keras-hub-test-env/lib/python3.12/site-packages/torch/fx/_symbolic_trace.py:500: NameError

The above exception was the direct cause of the following exception:

self = <torch.fx.experimental.proxy_tensor._ModuleStackTracer object at 0x3e31fede0>
m = <SingleStreamBlock name=single_stream_block, built=True>
forward = <function Tracer.trace.<locals>.module_call_wrapper.<locals>.forward at 0x396c85d00>
args = (FakeTensor(..., size=(1, 32, 256), grad_fn=<CatBackward0>),)
kwargs = {'modulation_encoding': FakeTensor(..., size=(1, 256), grad_fn=<AddBackward0>), 'positional_encoding': FakeTensor(..., size=(1, 32, 32, 2))}

    def call_module(
        self,
        m: Module,
        forward: Callable,
        args: tuple[object, ...],
        kwargs: dict[str, object],
    ) -> None:
        """PythonKeyTracer overrides call_module to avoid the scope handling,
        but we actually want it.
        """
        from torch._dynamo import OptimizedModule
    
        # FIXME (tmanlaibaatar)
        # When we call torch.compile inside HOO, we will end up
        # invoking a module that is not registered on the root. For
        # now, we just inline them. But once we start supporting
        # mark_strict in export, we do need to properly handle this.
        # Right now, it doesn't matter because current non-strict
        # use cases don't need to work with HOO.
        if isinstance(m, (OptimizedModule, GraphModule)):
            return forward(*args, **kwargs)
    
        try:
>           return Tracer.call_module(self, m, forward, args, kwargs)
                   ^^^^^^^^^^^^^^^^^^^^^^^^^^^^^^^^^^^^^^^^^^^^^^^^^^

../keras-hub-test-env/lib/python3.12/site-packages/torch/fx/experimental/proxy_tensor.py:1997: 
_ _ _ _ _ _ _ _ _ _ _ _ _ _ _ _ _ _ _ _ _ _ _ _ _ _ _ _ _ _ _ _ _ _ _ _ _ _ _ _ 
../keras-hub-test-env/lib/python3.12/site-packages/torch/fx/_symbolic_trace.py:545: in call_module
    module_qualified_name = self.path_of_module(m)
                            ^^^^^^^^^^^^^^^^^^^^^^
_ _ _ _ _ _ _ _ _ _ _ _ _ _ _ _ _ _ _ _ _ _ _ _ _ _ _ _ _ _ _ _ _ _ _ _ _ _ _ _ 

self = <torch.fx.experimental.proxy_tensor._ModuleStackTracer object at 0x3e31fede0>
mod = <SingleStreamBlock name=single_stream_block, built=True>

    def path_of_module(self, mod: Module) -> str:
        """
        Use tracked access path during tracing instead of the default BFS behavior.
        Still use all the possible module paths to verify the result.
        """
        if mod is self.scope_root:
            return ""
    
        if isinstance(mod, _AttrProxy):
            return self.proxy_paths[mod]
    
        try:
            return Tracer.path_of_module(self, mod)
        except NameError as e:
>           raise _ModuleNotInstalledAsSubmoduleError from e
E           torch.fx.experimental.proxy_tensor._ModuleNotInstalledAsSubmoduleError

../keras-hub-test-env/lib/python3.12/site-packages/torch/fx/experimental/proxy_tensor.py:1884: _ModuleNotInstalledAsSubmoduleError

During handling of the above exception, another exception occurred:

model = <FluxBackbone name=flux_backbone, built=True>
filepath = '/var/folders/kk/6bvt2y611ns5qk0zdmww21x801b8p6/T/tmpbbxtrjp3/model.tflite'
input_signature = [{'guidance': InputSpec(dtype=float32, shape=(1,), ndim=1), 'image': InputSpec(dtype=float32, shape=(1, 16, 64), ndim=3), 'image_ids': InputSpec(dtype=float32, shape=(1, 16, 3), ndim=3), 'text': InputSpec(dtype=float32, shape=(1, 16, 64), ndim=3), ...}]
verbose = None, kwargs = {}
litert_torch = <module 'litert_torch' from '/Users/hellorahul/Projects/keras-hub-test-env/lib/python3.12/site-packages/litert_torch/__init__.py'>
torch = <module 'torch' from '/Users/hellorahul/Projects/keras-hub-test-env/lib/python3.12/site-packages/torch/__init__.py'>
original_devices = {('var', 'dense_111/bias'): 'mps:0', ('var', 'dense_111/kernel'): 'mps:0', ('var', 'dense_118/bias'): 'mps:0', ('var', 'dense_118/kernel'): 'mps:0', ...}
device_scope = <function device_scope at 0x146833060>
sample_inputs = ({'guidance': tensor([1.]), 'image': tensor([[[1., 1., 1.,  ..., 1., 1., 1.],
         [1., 1., 1.,  ..., 1., 1., 1.],
         [1., 1., 1.,  ..., 1., 1., 1.],
         ...,
         [1., 1., 1.,  ..., 1., 1., 1.],
         [1., 1., 1.,  ..., 1., 1., 1.],
         [1., 1., 1.,  ..., 1., 1., 1.]]]), 'image_ids': tensor([[[1., 1., 1.],
         [1., 1., 1.],
         [1., 1., 1.],
         [1., 1., 1.],
         [1., 1., 1.],
         [1., 1., 1.],
         [1., 1., 1.],
         [1., 1., 1.],
         [1., 1., 1.],
         [1., 1., 1.],
         [1., 1., 1.],
         [1., 1., 1.],
         [1., 1., 1.],
         [1., 1., 1.],
         [1., 1., 1.],
         [1., 1., 1.]]]), 'text': tensor([[[1., 1., 1.,  ..., 1., 1., 1.],
         [1., 1., 1.,  ..., 1., 1., 1.],
         [1., 1., 1.,  ..., 1., 1., 1.],
         ...,
         [1., 1., 1.,  ..., 1., 1., 1.],
         [1., 1., 1.,  ..., 1., 1., 1.],
         [1., 1., 1.,  ..., 1., 1., 1.]]]), ...},)
litert_torch_kwargs = {}

    def export_litert_via_torch(
        model, filepath, input_signature=None, verbose=None, **kwargs
    ):
        """Export Keras model to LiteRT via PyTorch backend.
    
        This function handles the complete conversion pipeline:
        1. Move model to CPU (required for portable ops)
        2. Register decompositions for unsupported operations
        3. Patch VHLO version for TFLite converter compatibility
        4. Convert model using litert_torch
        5. Restore model to original device
    
        Args:
            model: Keras model to export.
            filepath: Path to save the .tflite model.
            input_signature: Optional input specification.
            verbose: Whether to print export messages.
            **kwargs: Additional arguments for litert_torch conversion.
    
        Returns:
            Path to the exported model.
        """
        try:
            import litert_torch
            import torch
        except ImportError:
            raise ImportError(
                "To export to LiteRT with the PyTorch backend, "
                "you must install the `litert-torch` package. "
                "Install via: pip install litert-torch"
            )
    
        from keras.src.export.export_utils import convert_spec_to_tensor
    
        # Track original devices for restoration
        original_devices = {}
    
        # Step 1: Move model to CPU for portable export
        _move_model_to_cpu(model, original_devices, torch)
    
        # Use CPU device scope for all conversions
        from keras.src.backend.torch.core import device_scope
    
        with device_scope("cpu"):
            # Step 2: Setup decompositions and version compatibility
            _register_litert_decompositions(torch, litert_torch)
            _patch_vhlo_target_version()
    
            # Step 3: Prepare sample inputs
            if input_signature is None:
                input_signature = get_input_signature(model)
    
            sample_inputs = tree.map_structure(
                lambda x: convert_spec_to_tensor(x, replace_none_number=1),
                input_signature,
            )
            sample_inputs = tree.map_structure(
                lambda t: t.cpu() if hasattr(t, "cpu") else t,
                sample_inputs,
            )
            sample_inputs = tuple(sample_inputs)
    
            # Step 4: Set model to eval mode
            if hasattr(model, "eval"):
                model.eval()
    
            # Step 5: Convert to LiteRT
            litert_torch_kwargs = _prepare_litert_kwargs(kwargs, litert_torch)
    
            try:
                try:
>                   edge_model = litert_torch.convert(
                        model, sample_inputs, **litert_torch_kwargs
                    )

../keras/keras/src/export/litert.py:340: 
_ _ _ _ _ _ _ _ _ _ _ _ _ _ _ _ _ _ _ _ _ _ _ _ _ _ _ _ _ _ _ _ _ _ _ _ _ _ _ _ 
../keras-hub-test-env/lib/python3.12/site-packages/litert_torch/_convert/converter.py:315: in convert
    return Converter().convert(
../keras-hub-test-env/lib/python3.12/site-packages/litert_torch/_convert/converter.py:203: in convert
    converted_model = conversion.convert_signatures(
../keras-hub-test-env/lib/python3.12/site-packages/litert_torch/_convert/conversion.py:141: in convert_signatures
    export(
../keras-hub-test-env/lib/python3.12/site-packages/litert_torch/_convert/conversion.py:125: in export
    exported_program = torch.export.export(**kwargs, strict=False)
                       ^^^^^^^^^^^^^^^^^^^^^^^^^^^^^^^^^^^^^^^^^^^
../keras-hub-test-env/lib/python3.12/site-packages/torch/export/__init__.py:311: in export
    raise e
../keras-hub-test-env/lib/python3.12/site-packages/torch/export/__init__.py:277: in export
    return _export(
../keras-hub-test-env/lib/python3.12/site-packages/torch/export/_trace.py:1163: in wrapper
    raise e
../keras-hub-test-env/lib/python3.12/site-packages/torch/export/_trace.py:1129: in wrapper
    ep = fn(*args, **kwargs)
         ^^^^^^^^^^^^^^^^^^^
../keras-hub-test-env/lib/python3.12/site-packages/torch/export/exported_program.py:124: in wrapper
    return fn(*args, **kwargs)
           ^^^^^^^^^^^^^^^^^^^
../keras-hub-test-env/lib/python3.12/site-packages/torch/export/_trace.py:2255: in _export
    ep = _export_for_training(
../keras-hub-test-env/lib/python3.12/site-packages/torch/export/_trace.py:1163: in wrapper
    raise e
../keras-hub-test-env/lib/python3.12/site-packages/torch/export/_trace.py:1129: in wrapper
    ep = fn(*args, **kwargs)
         ^^^^^^^^^^^^^^^^^^^
../keras-hub-test-env/lib/python3.12/site-packages/torch/export/exported_program.py:124: in wrapper
    return fn(*args, **kwargs)
           ^^^^^^^^^^^^^^^^^^^
../keras-hub-test-env/lib/python3.12/site-packages/torch/export/_trace.py:2071: in _export_for_training
    export_artifact = export_func(
../keras-hub-test-env/lib/python3.12/site-packages/torch/export/_trace.py:2002: in _non_strict_export
    aten_export_artifact = _to_aten_func(  # type: ignore[operator]
../keras-hub-test-env/lib/python3.12/site-packages/torch/export/_trace.py:1793: in _export_to_aten_ir_make_fx
    gm, graph_signature = transform(_make_fx_helper)(
../keras-hub-test-env/lib/python3.12/site-packages/torch/export/_trace.py:1922: in _aot_export_non_strict
    gm, sig = aot_export(wrapped_mod, args, kwargs=kwargs, **flags)
              ^^^^^^^^^^^^^^^^^^^^^^^^^^^^^^^^^^^^^^^^^^^^^^^^^^^^^
../keras-hub-test-env/lib/python3.12/site-packages/torch/export/_trace.py:1706: in _make_fx_helper
    gm = make_fx(
../keras-hub-test-env/lib/python3.12/site-packages/torch/fx/experimental/proxy_tensor.py:2429: in wrapped
    return make_fx_tracer.trace(f, *args)
           ^^^^^^^^^^^^^^^^^^^^^^^^^^^^^^
../keras-hub-test-env/lib/python3.12/site-packages/torch/fx/experimental/proxy_tensor.py:2356: in trace
    return self._trace_inner(f, *args)
           ^^^^^^^^^^^^^^^^^^^^^^^^^^^
../keras-hub-test-env/lib/python3.12/site-packages/torch/fx/experimental/proxy_tensor.py:2318: in _trace_inner
    t = dispatch_trace(
../keras-hub-test-env/lib/python3.12/site-packages/torch/_compile.py:53: in inner
    return disable_fn(*args, **kwargs)
           ^^^^^^^^^^^^^^^^^^^^^^^^^^^
../keras-hub-test-env/lib/python3.12/site-packages/torch/_dynamo/eval_frame.py:1044: in _fn
    return fn(*args, **kwargs)
           ^^^^^^^^^^^^^^^^^^^
../keras-hub-test-env/lib/python3.12/site-packages/torch/fx/experimental/proxy_tensor.py:1303: in dispatch_trace
    graph = tracer.trace(root, concrete_args)  # type: ignore[arg-type]
            ^^^^^^^^^^^^^^^^^^^^^^^^^^^^^^^^^
../keras-hub-test-env/lib/python3.12/site-packages/torch/fx/experimental/proxy_tensor.py:1908: in trace
    res = super().trace(root, concrete_args)
          ^^^^^^^^^^^^^^^^^^^^^^^^^^^^^^^^^^
../keras-hub-test-env/lib/python3.12/site-packages/torch/fx/_symbolic_trace.py:868: in trace
    (self.create_arg(fn(*args)),),
                     ^^^^^^^^^
../keras-hub-test-env/lib/python3.12/site-packages/torch/fx/experimental/proxy_tensor.py:1361: in wrapped
    out = f(*tensors)  # type:ignore[call-arg]
          ^^^^^^^^^^^
../keras-hub-test-env/lib/python3.12/site-packages/torch/export/_trace.py:1593: in wrapped_fn
    return tuple(flat_fn(*args))
                 ^^^^^^^^^^^^^^
../keras-hub-test-env/lib/python3.12/site-packages/torch/_functorch/_aot_autograd/utils.py:187: in flat_fn
    tree_out = fn(*args, **kwargs)
               ^^^^^^^^^^^^^^^^^^^
../keras-hub-test-env/lib/python3.12/site-packages/torch/_functorch/_aot_autograd/graph_capture_wrappers.py:1354: in functional_call
    out = mod(*args[params_len:], **kwargs)
          ^^^^^^^^^^^^^^^^^^^^^^^^^^^^^^^^^
../keras-hub-test-env/lib/python3.12/site-packages/torch/fx/_symbolic_trace.py:843: in module_call_wrapper
    return self.call_module(mod, forward, args, kwargs)
           ^^^^^^^^^^^^^^^^^^^^^^^^^^^^^^^^^^^^^^^^^^^^
../keras-hub-test-env/lib/python3.12/site-packages/torch/fx/experimental/proxy_tensor.py:1997: in call_module
    return Tracer.call_module(self, m, forward, args, kwargs)
           ^^^^^^^^^^^^^^^^^^^^^^^^^^^^^^^^^^^^^^^^^^^^^^^^^^
../keras-hub-test-env/lib/python3.12/site-packages/torch/fx/_symbolic_trace.py:560: in call_module
    ret_val = forward(*args, **kwargs)
              ^^^^^^^^^^^^^^^^^^^^^^^^
../keras-hub-test-env/lib/python3.12/site-packages/torch/fx/_symbolic_trace.py:836: in forward
    return _orig_module_call(mod, *args, **kwargs)
           ^^^^^^^^^^^^^^^^^^^^^^^^^^^^^^^^^^^^^^^
../keras-hub-test-env/lib/python3.12/site-packages/torch/nn/modules/module.py:1775: in _wrapped_call_impl
    return self._call_impl(*args, **kwargs)
           ^^^^^^^^^^^^^^^^^^^^^^^^^^^^^^^^
../keras-hub-test-env/lib/python3.12/site-packages/torch/nn/modules/module.py:1786: in _call_impl
    return forward_call(*args, **kwargs)
           ^^^^^^^^^^^^^^^^^^^^^^^^^^^^^
../keras-hub-test-env/lib/python3.12/site-packages/torch/export/_trace.py:1906: in forward
    tree_out = mod(*args, **kwargs)
               ^^^^^^^^^^^^^^^^^^^^
../keras/keras/src/utils/traceback_utils.py:113: in error_handler
    return fn(*args, **kwargs)
           ^^^^^^^^^^^^^^^^^^^
../keras/keras/src/layers/layer.py:959: in __call__
    outputs = super().__call__(*args, **kwargs)
              ^^^^^^^^^^^^^^^^^^^^^^^^^^^^^^^^^
../keras-hub-test-env/lib/python3.12/site-packages/torch/fx/_symbolic_trace.py:843: in module_call_wrapper
    return self.call_module(mod, forward, args, kwargs)
           ^^^^^^^^^^^^^^^^^^^^^^^^^^^^^^^^^^^^^^^^^^^^
../keras-hub-test-env/lib/python3.12/site-packages/torch/fx/experimental/proxy_tensor.py:1997: in call_module
    return Tracer.call_module(self, m, forward, args, kwargs)
           ^^^^^^^^^^^^^^^^^^^^^^^^^^^^^^^^^^^^^^^^^^^^^^^^^^
../keras-hub-test-env/lib/python3.12/site-packages/torch/fx/_symbolic_trace.py:560: in call_module
    ret_val = forward(*args, **kwargs)
              ^^^^^^^^^^^^^^^^^^^^^^^^
../keras-hub-test-env/lib/python3.12/site-packages/torch/fx/_symbolic_trace.py:836: in forward
    return _orig_module_call(mod, *args, **kwargs)
           ^^^^^^^^^^^^^^^^^^^^^^^^^^^^^^^^^^^^^^^
../keras-hub-test-env/lib/python3.12/site-packages/torch/nn/modules/module.py:1775: in _wrapped_call_impl
    return self._call_impl(*args, **kwargs)
           ^^^^^^^^^^^^^^^^^^^^^^^^^^^^^^^^
../keras-hub-test-env/lib/python3.12/site-packages/torch/nn/modules/module.py:1786: in _call_impl
    return forward_call(*args, **kwargs)
           ^^^^^^^^^^^^^^^^^^^^^^^^^^^^^
../keras/keras/src/backend/torch/layer.py:41: in forward
    return Operation.__call__(self, *args, **kwargs)
           ^^^^^^^^^^^^^^^^^^^^^^^^^^^^^^^^^^^^^^^^^
../keras/keras/src/utils/traceback_utils.py:113: in error_handler
    return fn(*args, **kwargs)
           ^^^^^^^^^^^^^^^^^^^
../keras/keras/src/ops/operation.py:77: in __call__
    return self.call(*args, **kwargs)
           ^^^^^^^^^^^^^^^^^^^^^^^^^^
../keras/keras/src/models/functional.py:183: in call
    outputs = self._run_through_graph(
../keras/keras/src/ops/function.py:210: in _run_through_graph
    outputs = op(*args, **kwargs)
              ^^^^^^^^^^^^^^^^^^^
../keras/keras/src/models/functional.py:647: in call
    return operation(*args, **kwargs)
           ^^^^^^^^^^^^^^^^^^^^^^^^^^
../keras/keras/src/utils/traceback_utils.py:113: in error_handler
    return fn(*args, **kwargs)
           ^^^^^^^^^^^^^^^^^^^
../keras/keras/src/layers/layer.py:959: in __call__
    outputs = super().__call__(*args, **kwargs)
              ^^^^^^^^^^^^^^^^^^^^^^^^^^^^^^^^^
../keras-hub-test-env/lib/python3.12/site-packages/torch/fx/_symbolic_trace.py:843: in module_call_wrapper
    return self.call_module(mod, forward, args, kwargs)
           ^^^^^^^^^^^^^^^^^^^^^^^^^^^^^^^^^^^^^^^^^^^^
../keras-hub-test-env/lib/python3.12/site-packages/torch/fx/experimental/proxy_tensor.py:2006: in call_module
    return forward(*args, **kwargs)
           ^^^^^^^^^^^^^^^^^^^^^^^^
../keras-hub-test-env/lib/python3.12/site-packages/torch/fx/_symbolic_trace.py:836: in forward
    return _orig_module_call(mod, *args, **kwargs)
           ^^^^^^^^^^^^^^^^^^^^^^^^^^^^^^^^^^^^^^^
../keras-hub-test-env/lib/python3.12/site-packages/torch/nn/modules/module.py:1775: in _wrapped_call_impl
    return self._call_impl(*args, **kwargs)
           ^^^^^^^^^^^^^^^^^^^^^^^^^^^^^^^^
../keras-hub-test-env/lib/python3.12/site-packages/torch/nn/modules/module.py:1786: in _call_impl
    return forward_call(*args, **kwargs)
           ^^^^^^^^^^^^^^^^^^^^^^^^^^^^^
../keras/keras/src/backend/torch/layer.py:41: in forward
    return Operation.__call__(self, *args, **kwargs)
           ^^^^^^^^^^^^^^^^^^^^^^^^^^^^^^^^^^^^^^^^^
../keras/keras/src/utils/traceback_utils.py:113: in error_handler
    return fn(*args, **kwargs)
           ^^^^^^^^^^^^^^^^^^^
../keras/keras/src/ops/operation.py:77: in __call__
    return self.call(*args, **kwargs)
           ^^^^^^^^^^^^^^^^^^^^^^^^^^
keras_hub/src/models/flux/flux_layers.py:440: in call
    q, k, v = rearrange_symbolic_tensors(qkv, K=3, H=self.num_heads)
              ^^^^^^^^^^^^^^^^^^^^^^^^^^^^^^^^^^^^^^^^^^^^^^^^^^^^^^
keras_hub/src/models/flux/flux_maths.py:232: in rearrange_symbolic_tensors
    qkv_reshaped = ops.reshape(qkv, (B, L, K, H, D))
                   ^^^^^^^^^^^^^^^^^^^^^^^^^^^^^^^^^
../keras/keras/src/ops/numpy.py:6335: in reshape
    return backend.numpy.reshape(x, newshape)
           ^^^^^^^^^^^^^^^^^^^^^^^^^^^^^^^^^^
../keras/keras/src/backend/torch/numpy.py:1618: in reshape
    return torch.reshape(x, newshape)
           ^^^^^^^^^^^^^^^^^^^^^^^^^^
../keras-hub-test-env/lib/python3.12/site-packages/torch/fx/experimental/proxy_tensor.py:1409: in __torch_function__
    return func(*args, **kwargs)
           ^^^^^^^^^^^^^^^^^^^^^
../keras-hub-test-env/lib/python3.12/site-packages/torch/fx/experimental/proxy_tensor.py:1479: in __torch_function__
    return func(*args, **kwargs)
           ^^^^^^^^^^^^^^^^^^^^^
../keras-hub-test-env/lib/python3.12/site-packages/torch/_export/non_strict_utils.py:1066: in __torch_function__
    return func(*args, **kwargs)
           ^^^^^^^^^^^^^^^^^^^^^
../keras-hub-test-env/lib/python3.12/site-packages/torch/_ops.py:962: in handler
    return torch._library.utils.handle_dispatch_mode(
../keras-hub-test-env/lib/python3.12/site-packages/torch/_library/utils.py:286: in handle_dispatch_mode
    return curr_mode.__torch_dispatch__(op_overload, overload_types, args, kwargs)
           ^^^^^^^^^^^^^^^^^^^^^^^^^^^^^^^^^^^^^^^^^^^^^^^^^^^^^^^^^^^^^^^^^^^^^^^
../keras-hub-test-env/lib/python3.12/site-packages/torch/utils/_stats.py:28: in wrapper
    return fn(*args, **kwargs)
           ^^^^^^^^^^^^^^^^^^^
../keras-hub-test-env/lib/python3.12/site-packages/torch/fx/experimental/proxy_tensor.py:1534: in __torch_dispatch__
    return proxy_call(self, func, self.pre_dispatch, args, kwargs)
           ^^^^^^^^^^^^^^^^^^^^^^^^^^^^^^^^^^^^^^^^^^^^^^^^^^^^^^^
../keras-hub-test-env/lib/python3.12/site-packages/torch/fx/experimental/proxy_tensor.py:994: in proxy_call
    out = func(*args, **kwargs)
          ^^^^^^^^^^^^^^^^^^^^^
../keras-hub-test-env/lib/python3.12/site-packages/torch/_ops.py:841: in __call__
    return self._op(*args, **kwargs)
           ^^^^^^^^^^^^^^^^^^^^^^^^^
../keras-hub-test-env/lib/python3.12/site-packages/torch/utils/_stats.py:28: in wrapper
    return fn(*args, **kwargs)
           ^^^^^^^^^^^^^^^^^^^
../keras-hub-test-env/lib/python3.12/site-packages/torch/_subclasses/fake_tensor.py:1376: in __torch_dispatch__
    return self.dispatch(func, types, args, kwargs)
           ^^^^^^^^^^^^^^^^^^^^^^^^^^^^^^^^^^^^^^^^
../keras-hub-test-env/lib/python3.12/site-packages/torch/_subclasses/fake_tensor.py:2096: in dispatch
    return self._cached_dispatch_impl(func, types, args, kwargs)
           ^^^^^^^^^^^^^^^^^^^^^^^^^^^^^^^^^^^^^^^^^^^^^^^^^^^^^
../keras-hub-test-env/lib/python3.12/site-packages/torch/_subclasses/fake_tensor.py:1511: in _cached_dispatch_impl
    output = self._dispatch_impl(func, types, args, kwargs)
             ^^^^^^^^^^^^^^^^^^^^^^^^^^^^^^^^^^^^^^^^^^^^^^
../keras-hub-test-env/lib/python3.12/site-packages/torch/_subclasses/fake_tensor.py:2725: in _dispatch_impl
    op_impl_out = op_impl(self, func, *args, **kwargs)
                  ^^^^^^^^^^^^^^^^^^^^^^^^^^^^^^^^^^^^
../keras-hub-test-env/lib/python3.12/site-packages/torch/_subclasses/fake_impls.py:169: in dispatch_to_op_implementations_dict
    return op_implementations_dict[func](fake_mode, func, *args, **kwargs)
           ^^^^^^^^^^^^^^^^^^^^^^^^^^^^^^^^^^^^^^^^^^^^^^^^^^^^^^^^^^^^^^^
../keras-hub-test-env/lib/python3.12/site-packages/torch/_subclasses/fake_impls.py:601: in _view_meta
    return _view_unbacked_meta(a, shape)
           ^^^^^^^^^^^^^^^^^^^^^^^^^^^^^
../keras-hub-test-env/lib/python3.12/site-packages/torch/_subclasses/fake_impls.py:578: in _view_unbacked_meta
    return a.as_strided(shape, new_strides)
           ^^^^^^^^^^^^^^^^^^^^^^^^^^^^^^^^
../keras-hub-test-env/lib/python3.12/site-packages/torch/utils/_stats.py:28: in wrapper
    return fn(*args, **kwargs)
           ^^^^^^^^^^^^^^^^^^^
../keras-hub-test-env/lib/python3.12/site-packages/torch/_subclasses/fake_tensor.py:872: in __torch_dispatch__
    return func(*args, **kwargs)
           ^^^^^^^^^^^^^^^^^^^^^
../keras-hub-test-env/lib/python3.12/site-packages/torch/_ops.py:841: in __call__
    return self._op(*args, **kwargs)
           ^^^^^^^^^^^^^^^^^^^^^^^^^
../keras-hub-test-env/lib/python3.12/site-packages/torch/utils/_stats.py:28: in wrapper
    return fn(*args, **kwargs)
           ^^^^^^^^^^^^^^^^^^^
../keras-hub-test-env/lib/python3.12/site-packages/torch/_subclasses/fake_tensor.py:1376: in __torch_dispatch__
    return self.dispatch(func, types, args, kwargs)
           ^^^^^^^^^^^^^^^^^^^^^^^^^^^^^^^^^^^^^^^^
../keras-hub-test-env/lib/python3.12/site-packages/torch/_subclasses/fake_tensor.py:2096: in dispatch
    return self._cached_dispatch_impl(func, types, args, kwargs)
           ^^^^^^^^^^^^^^^^^^^^^^^^^^^^^^^^^^^^^^^^^^^^^^^^^^^^^
../keras-hub-test-env/lib/python3.12/site-packages/torch/_subclasses/fake_tensor.py:1533: in _cached_dispatch_impl
    entry = self._make_cache_entry(state, key, func, args, kwargs, output)
            ^^^^^^^^^^^^^^^^^^^^^^^^^^^^^^^^^^^^^^^^^^^^^^^^^^^^^^^^^^^^^^
../keras-hub-test-env/lib/python3.12/site-packages/torch/_subclasses/fake_tensor.py:1916: in _make_cache_entry
    output_info = self._get_output_info_for_cache_entry(
../keras-hub-test-env/lib/python3.12/site-packages/torch/_subclasses/fake_tensor.py:1805: in _get_output_info_for_cache_entry
    metadata = extract_tensor_metadata(output)
               ^^^^^^^^^^^^^^^^^^^^^^^^^^^^^^^
../keras-hub-test-env/lib/python3.12/site-packages/torch/_subclasses/fake_tensor.py:1055: in extract_tensor_metadata
    memory_format = suggest_memory_format(t)
                    ^^^^^^^^^^^^^^^^^^^^^^^^
../keras-hub-test-env/lib/python3.12/site-packages/torch/_prims_common/__init__.py:2011: in suggest_memory_format
    if are_strides_like_channels_last(x.shape, x.stride()):
       ^^^^^^^^^^^^^^^^^^^^^^^^^^^^^^^^^^^^^^^^^^^^^^^^^^^
../keras-hub-test-env/lib/python3.12/site-packages/torch/_prims_common/__init__.py:1995: in are_strides_like_channels_last
    if guard_size_oblivious(shape[d] == 0):
       ^^^^^^^^^^^^^^^^^^^^^^^^^^^^^^^^^^^
../keras-hub-test-env/lib/python3.12/site-packages/torch/fx/experimental/symbolic_shapes.py:471: in guard_size_oblivious
    return expr.node.guard_size_oblivious("", 0)
           ^^^^^^^^^^^^^^^^^^^^^^^^^^^^^^^^^^^^^
../keras-hub-test-env/lib/python3.12/site-packages/torch/fx/experimental/sym_node.py:596: in guard_size_oblivious
    r = self.evaluate(size_oblivious=True)
        ^^^^^^^^^^^^^^^^^^^^^^^^^^^^^^^^^^
../keras-hub-test-env/lib/python3.12/site-packages/torch/fx/experimental/sym_node.py:512: in evaluate
    return self.shape_env.evaluate_sym_node(self, size_oblivious)
           ^^^^^^^^^^^^^^^^^^^^^^^^^^^^^^^^^^^^^^^^^^^^^^^^^^^^^^
../keras-hub-test-env/lib/python3.12/site-packages/torch/fx/experimental/symbolic_shapes.py:7233: in evaluate_sym_node
    return self.evaluate_expr(
../keras-hub-test-env/lib/python3.12/site-packages/torch/fx/experimental/symbolic_shapes.py:7333: in evaluate_expr
    return self._inner_evaluate_expr(
../keras-hub-test-env/lib/python3.12/site-packages/torch/fx/experimental/recording.py:272: in wrapper
    return retlog(fn(*args, **kwargs))
                  ^^^^^^^^^^^^^^^^^^^
../keras-hub-test-env/lib/python3.12/site-packages/torch/fx/experimental/symbolic_shapes.py:7356: in _inner_evaluate_expr
    return self._evaluate_expr(
_ _ _ _ _ _ _ _ _ _ _ _ _ _ _ _ _ _ _ _ _ _ _ _ _ _ _ _ _ _ _ _ _ _ _ _ _ _ _ _ 

self = <torch.fx.experimental.symbolic_shapes.ShapeEnv object at 0x3990bc050>
orig_expr = Eq((u0//12), 0), hint = None, fx_node = False, size_oblivious = True
fallback_value = None

    def _evaluate_expr(
        self,
        orig_expr: sympy.Basic,
        hint: Optional[Union[bool, int, float]] = None,
        fx_node: Optional[torch.fx.Node] = None,
        size_oblivious: bool = False,
        fallback_value: Optional[bool] = None,
        *,
        forcing_spec: bool = False,
    ) -> sympy.Basic:
        # TODO: split conjunctions and evaluate them separately
    
        if isinstance(
            orig_expr,
            (sympy.logic.boolalg.BooleanTrue, sympy.logic.boolalg.BooleanFalse),
        ):
            return orig_expr
    
        # Don't track this one. (Because this cache is inside this function the
        # cache only lasts for the invocation of this function call)
        @functools.cache
        def compute_concrete_val() -> sympy.Basic:
            if hint is None:
                # This is only ever called for expressions WITHOUT unbacked
                # symbols
                r = self.size_hint(orig_expr)
                assert r is not None
                return r
            else:
                return sympy.sympify(hint)
    
        concrete_val: Optional[sympy.Basic]
    
        # Check if:
        #   1. 'translation_validation' is set
        #   2. the corresponding 'fx_node' is not 'None'
        #   3. the guard should not be suppressed
        #   4. the guard doesn't contain backed symfloat symbols
        #      since z3 can't handle floats
        #   5. fallback_value is none.
        # If all of the above check, we create an FX node representing the
        # actual expression to be guarded.
        node = None
        fresh = False
        if (
            self._translation_validation_enabled
            and fx_node is not None
            and not self._suppress_guards_tls()
            and not size_oblivious
            and not any(symbol_is_type(s, SymT.FLOAT) for s in orig_expr.free_symbols)
            and fallback_value is None
        ):
            # TODO: does this even worked with unbacked :think:
            concrete_val = compute_concrete_val()
            if concrete_val is sympy.true:
                node, fresh = self._create_fx_call_function(torch._assert, (fx_node,))
            elif concrete_val is sympy.false:
                neg, _ = self._create_fx_call_function(operator.not_, (fx_node,))
                node, fresh = self._create_fx_call_function(torch._assert, (neg,))
            else:
                eql, _ = self._create_fx_call_function(
                    operator.eq, (fx_node, concrete_val)
                )
                node, fresh = self._create_fx_call_function(torch._assert, (eql,))
    
            assert node is not None
            # If this is a fresh node, we have to remember the event index that
            # corresponds to this assertion node.
            # Reason: so that, given an assertion node, we can replay the ShapeEnv
            # events until the point where this assertion node was freshly created.
            if fresh:
                self._add_fx_node_metadata(node)
    
        # After creating the FX node corresponding to orig_expr, we must make sure that
        # no error will be raised until the end of this function.
        #
        # Reason: the translation validation may become invalid otherwise.
        #
        # If an error is raised before the end of this function, we remove the FX node
        # inserted, and re-raise the error.
        guard = None
    
        try:
            if orig_expr.is_number:
                self.log.debug("eval %s [trivial]", orig_expr)
                if hint is not None:
                    if isinstance(hint, bool):
                        assert orig_expr == hint, f"{orig_expr} != {hint}"
                    else:
                        assert sympy.Eq(orig_expr, hint), f"{orig_expr} != {hint}"
                return orig_expr
    
            expr = orig_expr
    
            static_expr = self._maybe_evaluate_static(
                expr, size_oblivious=size_oblivious
            )
            if static_expr is not None:
                self.log.debug(
                    "eval %s == %s [statically known]",
                    (
                        f"size_oblivious({orig_expr})"
                        if size_oblivious
                        else size_oblivious
                    ),
                    static_expr,
                )
                if (
                    not size_oblivious
                    and config.backed_size_oblivious
                    and hint is not None
                ):
                    # TODO: maybe reconcile this with use of counterfactual hints
                    # in unbacked case
                    assert static_expr == hint, f"{static_expr} != {hint}"
                return static_expr
    
            transmute_into_runtime_assert = False
    
            concrete_val = None
            if not (expr.free_symbols <= self.var_to_val.keys()):
                # TODO: dedupe this with _maybe_evaluate_static
                # Attempt to eliminate the unbacked SymInt
                new_expr = self._maybe_evaluate_static(expr, unbacked_only=True)
                assert new_expr is not None
                if not (new_expr.free_symbols <= self.var_to_val.keys()):
                    ok = False
    
                    # fallback_value is set when guard_or_true or guard_or_false are used.
                    if not ok and fallback_value is not None:
                        self._log_suppressed_dde(orig_expr, fallback_value)
                        return fallback_value
    
                    # oblivious_var_to_val will be defined iff we have sizes with DimDynamic.OBLIVIOUS_SIZE type.
                    # See https://github.com/pytorch/pytorch/issues/137100#issuecomment-2495778113
                    if (
                        self.oblivious_var_to_val
                        and not (
                            correct_hint := orig_expr.xreplace(
                                self.oblivious_var_to_val
                            )
                        ).free_symbols
                        and not (
                            counterfactual_hint := orig_expr.xreplace(
                                {
                                    k: max(2, v)
                                    for k, v in self.oblivious_var_to_val.items()
                                }
                            )
                        ).free_symbols
                        and correct_hint == counterfactual_hint
                    ):
                        # TODO: better logging
                        log.info(
                            "oblivious_size %s -> %s (passed counterfactual)",
                            orig_expr,
                            correct_hint,
                        )
                        concrete_val = correct_hint
                        # NB: do NOT transmute into runtime assert
                        ok = True
    
                    # unbacked_var_to_val is not None iff propagate_real_tensors is on.
                    # if propagate_real_tensors is on, we check the example values to generate (unsound_result)
                    # and if they pass we add a runtime assertions and continue.
                    if (
                        not ok
                        and self.unbacked_var_to_val
                        and not (
                            unsound_result := orig_expr.xreplace(
                                self.unbacked_var_to_val
                            ).xreplace(self.var_to_val)
                        ).free_symbols
                    ):
                        self._log_real_tensor_propagation(orig_expr, unsound_result)
                        transmute_into_runtime_assert = True
                        concrete_val = unsound_result
                        ok = True
    
                    # Check if this is coming from a python assert statement, if so, convert it to a runtime assertion
                    # instead of failing.
                    if not ok and self.trace_asserts and self._is_python_assert():
                        concrete_val = sympy.true
                        transmute_into_runtime_assert = True
                        ok = True
    
                    if not ok:
>                       raise self._make_data_dependent_error(
                            expr.xreplace(self.var_to_val),
                            expr,
                            expr_sym_node_id=self._expr_sym_node_id,
                        )
E                       torch.fx.experimental.symbolic_shapes.GuardOnDataDependentSymNode: Could not guard on data-dependent expression Eq((u0//12), 0) (unhinted: Eq((u0//12), 0)).  (Size-like symbols: u0)
E                       
E                       consider using data-dependent friendly APIs such as guard_or_false, guard_or_true and statically_known_trueCaused by: (_prims_common/__init__.py:1995 in are_strides_like_channels_last)
E                       For more information, run with TORCH_LOGS="dynamic"
E                       For extended logs when we create symbols, also add TORCHDYNAMO_EXTENDED_DEBUG_CREATE_SYMBOL="u0"
E                       If you suspect the guard was triggered from C++, add TORCHDYNAMO_EXTENDED_DEBUG_CPP=1
E                       For more debugging help, see https://docs.google.com/document/d/1HSuTTVvYH1pTew89Rtpeu84Ht3nQEFTYhAX3Ypa_xJs/edit?usp=sharing
E                       
E                       For C++ stack trace, run with TORCHDYNAMO_EXTENDED_DEBUG_CPP=1
E                       
E                       The following call raised this error:
E                         File "/Users/hellorahul/Projects/keras/keras/src/backend/torch/numpy.py", line 1618, in reshape
E                           return torch.reshape(x, newshape)
E                       
E                       To fix the error, insert one of the following checks before this call:
E                         1. torch._check((x.shape[2] // 12) == 0)
E                         2. torch._check((x.shape[2] // 12) != 0)
E                       
E                       (These suggested fixes were derived by replacing `u0` with x.shape[2] in Eq((u0//12), 0) and its negation.)
E                       
E                       The error above occurred when calling torch.export.export. If you would like to view some more information about this error, and get a list of all other errors that may occur in your export call, you can replace your `export()` call with `draft_export()`.

../keras-hub-test-env/lib/python3.12/site-packages/torch/fx/experimental/symbolic_shapes.py:7574: GuardOnDataDependentSymNode

The above exception was the direct cause of the following exception:

self = <keras_hub.src.models.flux.flux_backbone_test.FluxBackboneTest testMethod=test_litert_export>

    def test_litert_export(self):
>       self.run_litert_export_test(
            cls=FluxBackbone,
            init_kwargs=self.init_kwargs,
            input_data=self.input_data,
            comparison_mode="statistical",
            output_thresholds={"*": {"max": 1e-4, "mean": 1e-5}},
        )

keras_hub/src/models/flux/flux_backbone_test.py:88: 
_ _ _ _ _ _ _ _ _ _ _ _ _ _ _ _ _ _ _ _ _ _ _ _ _ _ _ _ _ _ _ _ _ _ _ _ _ _ _ _ 
keras_hub/src/tests/test_case.py:673: in run_litert_export_test
    model.export(export_path, format="litert", **export_kwargs)
../keras/keras/src/models/model.py:823: in export
    export_litert(
../keras/keras/src/export/litert.py:27: in export_litert
    return export_litert_via_torch(
_ _ _ _ _ _ _ _ _ _ _ _ _ _ _ _ _ _ _ _ _ _ _ _ _ _ _ _ _ _ _ _ _ _ _ _ _ _ _ _ 

model = <FluxBackbone name=flux_backbone, built=True>
filepath = '/var/folders/kk/6bvt2y611ns5qk0zdmww21x801b8p6/T/tmpbbxtrjp3/model.tflite'
input_signature = [{'guidance': InputSpec(dtype=float32, shape=(1,), ndim=1), 'image': InputSpec(dtype=float32, shape=(1, 16, 64), ndim=3), 'image_ids': InputSpec(dtype=float32, shape=(1, 16, 3), ndim=3), 'text': InputSpec(dtype=float32, shape=(1, 16, 64), ndim=3), ...}]
verbose = None, kwargs = {}
litert_torch = <module 'litert_torch' from '/Users/hellorahul/Projects/keras-hub-test-env/lib/python3.12/site-packages/litert_torch/__init__.py'>
torch = <module 'torch' from '/Users/hellorahul/Projects/keras-hub-test-env/lib/python3.12/site-packages/torch/__init__.py'>
original_devices = {('var', 'dense_111/bias'): 'mps:0', ('var', 'dense_111/kernel'): 'mps:0', ('var', 'dense_118/bias'): 'mps:0', ('var', 'dense_118/kernel'): 'mps:0', ...}
device_scope = <function device_scope at 0x146833060>
sample_inputs = ({'guidance': tensor([1.]), 'image': tensor([[[1., 1., 1.,  ..., 1., 1., 1.],
         [1., 1., 1.,  ..., 1., 1., 1.],
         [1., 1., 1.,  ..., 1., 1., 1.],
         ...,
         [1., 1., 1.,  ..., 1., 1., 1.],
         [1., 1., 1.,  ..., 1., 1., 1.],
         [1., 1., 1.,  ..., 1., 1., 1.]]]), 'image_ids': tensor([[[1., 1., 1.],
         [1., 1., 1.],
         [1., 1., 1.],
         [1., 1., 1.],
         [1., 1., 1.],
         [1., 1., 1.],
         [1., 1., 1.],
         [1., 1., 1.],
         [1., 1., 1.],
         [1., 1., 1.],
         [1., 1., 1.],
         [1., 1., 1.],
         [1., 1., 1.],
         [1., 1., 1.],
         [1., 1., 1.],
         [1., 1., 1.]]]), 'text': tensor([[[1., 1., 1.,  ..., 1., 1., 1.],
         [1., 1., 1.,  ..., 1., 1., 1.],
         [1., 1., 1.,  ..., 1., 1., 1.],
         ...,
         [1., 1., 1.,  ..., 1., 1., 1.],
         [1., 1., 1.,  ..., 1., 1., 1.],
         [1., 1., 1.,  ..., 1., 1., 1.]]]), ...},)
litert_torch_kwargs = {}

    def export_litert_via_torch(
        model, filepath, input_signature=None, verbose=None, **kwargs
    ):
        """Export Keras model to LiteRT via PyTorch backend.
    
        This function handles the complete conversion pipeline:
        1. Move model to CPU (required for portable ops)
        2. Register decompositions for unsupported operations
        3. Patch VHLO version for TFLite converter compatibility
        4. Convert model using litert_torch
        5. Restore model to original device
    
        Args:
            model: Keras model to export.
            filepath: Path to save the .tflite model.
            input_signature: Optional input specification.
            verbose: Whether to print export messages.
            **kwargs: Additional arguments for litert_torch conversion.
    
        Returns:
            Path to the exported model.
        """
        try:
            import litert_torch
            import torch
        except ImportError:
            raise ImportError(
                "To export to LiteRT with the PyTorch backend, "
                "you must install the `litert-torch` package. "
                "Install via: pip install litert-torch"
            )
    
        from keras.src.export.export_utils import convert_spec_to_tensor
    
        # Track original devices for restoration
        original_devices = {}
    
        # Step 1: Move model to CPU for portable export
        _move_model_to_cpu(model, original_devices, torch)
    
        # Use CPU device scope for all conversions
        from keras.src.backend.torch.core import device_scope
    
        with device_scope("cpu"):
            # Step 2: Setup decompositions and version compatibility
            _register_litert_decompositions(torch, litert_torch)
            _patch_vhlo_target_version()
    
            # Step 3: Prepare sample inputs
            if input_signature is None:
                input_signature = get_input_signature(model)
    
            sample_inputs = tree.map_structure(
                lambda x: convert_spec_to_tensor(x, replace_none_number=1),
                input_signature,
            )
            sample_inputs = tree.map_structure(
                lambda t: t.cpu() if hasattr(t, "cpu") else t,
                sample_inputs,
            )
            sample_inputs = tuple(sample_inputs)
    
            # Step 4: Set model to eval mode
            if hasattr(model, "eval"):
                model.eval()
    
            # Step 5: Convert to LiteRT
            litert_torch_kwargs = _prepare_litert_kwargs(kwargs, litert_torch)
    
            try:
                try:
                    edge_model = litert_torch.convert(
                        model, sample_inputs, **litert_torch_kwargs
                    )
                except Exception as e:
>                   raise RuntimeError(
                        f"Failed to convert PyTorch model to LiteRT. "
                        f"Common causes: unsupported operations, dynamic shapes, "
                        f"or complex control flow. Original error: {e}"
                    ) from e
E                   RuntimeError: Failed to convert PyTorch model to LiteRT. Common causes: unsupported operations, dynamic shapes, or complex control flow. Original error: Could not guard on data-dependent expression Eq((u0//12), 0) (unhinted: Eq((u0//12), 0)).  (Size-like symbols: u0)
E                   
E                   consider using data-dependent friendly APIs such as guard_or_false, guard_or_true and statically_known_trueCaused by: (_prims_common/__init__.py:1995 in are_strides_like_channels_last)
E                   For more information, run with TORCH_LOGS="dynamic"
E                   For extended logs when we create symbols, also add TORCHDYNAMO_EXTENDED_DEBUG_CREATE_SYMBOL="u0"
E                   If you suspect the guard was triggered from C++, add TORCHDYNAMO_EXTENDED_DEBUG_CPP=1
E                   For more debugging help, see https://docs.google.com/document/d/1HSuTTVvYH1pTew89Rtpeu84Ht3nQEFTYhAX3Ypa_xJs/edit?usp=sharing
E                   
E                   For C++ stack trace, run with TORCHDYNAMO_EXTENDED_DEBUG_CPP=1
E                   
E                   The following call raised this error:
E                     File "/Users/hellorahul/Projects/keras/keras/src/backend/torch/numpy.py", line 1618, in reshape
E                       return torch.reshape(x, newshape)
E                   
E                   To fix the error, insert one of the following checks before this call:
E                     1. torch._check((x.shape[2] // 12) == 0)
E                     2. torch._check((x.shape[2] // 12) != 0)
E                   
E                   (These suggested fixes were derived by replacing `u0` with x.shape[2] in Eq((u0//12), 0) and its negation.)
E                   
E                   The error above occurred when calling torch.export.export. If you would like to view some more information about this error, and get a list of all other errors that may occur in your export call, you can replace your `export()` call with `draft_export()`.

../keras/keras/src/export/litert.py:344: RuntimeError
----------------------------- Captured stderr call -----------------------------



def forward(self, arg0_1: "f32[1, 16, 64]", arg1_1: "f32[1, 16, 3]", arg2_1: "f32[1, 16, 64]", arg3_1: "f32[1, 16, 3]", arg4_1: "f32[1, 64]", arg5_1: "f32[1]", arg6_1: "f32[1]"):
     # File: /Users/hellorahul/Projects/keras/keras/src/backend/torch/layer.py:41 in forward, code: return Operation.__call__(self, *args, **kwargs)
    to: "f32[1]" = torch.ops.aten.to.dtype_layout(arg6_1, dtype = torch.float32, layout = torch.strided, device = device(type='cpu'));  arg6_1 = None
    to_1: "f32[1]" = torch.ops.aten.to.dtype(to, torch.float32);  to = None
    to_2: "f32[1, 16, 64]" = torch.ops.aten.to.dtype_layout(arg0_1, dtype = torch.float32, layout = torch.strided, device = device(type='cpu'));  arg0_1 = None
    to_3: "f32[1, 16, 64]" = torch.ops.aten.to.dtype(to_2, torch.float32);  to_2 = None
    to_4: "f32[1, 16, 3]" = torch.ops.aten.to.dtype_layout(arg1_1, dtype = torch.float32, layout = torch.strided, device = device(type='cpu'));  arg1_1 = None
    to_5: "f32[1, 16, 3]" = torch.ops.aten.to.dtype(to_4, torch.float32);  to_4 = None
    to_6: "f32[1, 16, 64]" = torch.ops.aten.to.dtype_layout(arg2_1, dtype = torch.float32, layout = torch.strided, device = device(type='cpu'));  arg2_1 = None
    to_7: "f32[1, 16, 64]" = torch.ops.aten.to.dtype(to_6, torch.float32);  to_6 = None
    to_8: "f32[1, 16, 3]" = torch.ops.aten.to.dtype_layout(arg3_1, dtype = torch.float32, layout = torch.strided, device = device(type='cpu'));  arg3_1 = None
    to_9: "f32[1, 16, 3]" = torch.ops.aten.to.dtype(to_8, torch.float32);  to_8 = None
    to_10: "f32[1]" = torch.ops.aten.to.dtype_layout(arg5_1, dtype = torch.float32, layout = torch.strided, device = device(type='cpu'));  arg5_1 = None
    to_11: "f32[1]" = torch.ops.aten.to.dtype(to_10, torch.float32);  to_10 = None
    to_12: "f32[1, 64]" = torch.ops.aten.to.dtype_layout(arg4_1, dtype = torch.float32, layout = torch.strided, device = device(type='cpu'));  arg4_1 = None
    to_13: "f32[1, 64]" = torch.ops.aten.to.dtype(to_12, torch.float32);  to_12 = None
    
     # File: /Users/hellorahul/Projects/keras/keras/src/backend/torch/layer.py:41 in forward, code: return Operation.__call__(self, *args, **kwargs)
    mul: "f32[1]" = torch.ops.aten.mul.Tensor(to_1, 1000.0);  to_1 = None
    _tensor_constant0: "i32[]" = self._tensor_constant0
    lift_fresh_copy: "i32[]" = torch.ops.aten.lift_fresh_copy.default(_tensor_constant0);  _tensor_constant0 = None
    log: "f32[]" = torch.ops.aten.log.default(lift_fresh_copy);  lift_fresh_copy = None
    neg: "f32[]" = torch.ops.aten.neg.default(log);  log = None
    arange: "f32[128]" = torch.ops.aten.arange.start_step(0, 128, dtype = torch.float32, device = device(type='cpu'), pin_memory = False)
    mul_1: "f32[128]" = torch.ops.aten.mul.Tensor(neg, arange);  neg = arange = None
    div: "f32[128]" = torch.ops.aten.div.Tensor(mul_1, 128);  mul_1 = None
    to_14: "f32[128]" = torch.ops.aten.to.dtype_layout(div, dtype = torch.float32, layout = torch.strided, device = device(type='cpu'));  div = None
    exp: "f32[128]" = torch.ops.aten.exp.default(to_14);  to_14 = None
    unsqueeze: "f32[1, 1]" = torch.ops.aten.unsqueeze.default(mul, 1);  mul = None
    unsqueeze_1: "f32[1, 128]" = torch.ops.aten.unsqueeze.default(exp, 0);  exp = None
    mul_2: "f32[1, 128]" = torch.ops.aten.mul.Tensor(unsqueeze, unsqueeze_1);  unsqueeze = unsqueeze_1 = None
    to_15: "f32[1, 128]" = torch.ops.aten.to.dtype_layout(mul_2, dtype = torch.float32, layout = torch.strided, device = device(type='cpu'));  mul_2 = None
    cos: "f32[1, 128]" = torch.ops.aten.cos.default(to_15)
    to_16: "f32[1, 128]" = torch.ops.aten.to.dtype_layout(to_15, dtype = torch.float32, layout = torch.strided, device = device(type='cpu'));  to_15 = None
    sin: "f32[1, 128]" = torch.ops.aten.sin.default(to_16);  to_16 = None
    to_17: "f32[1, 128]" = torch.ops.aten.to.dtype_layout(cos, dtype = torch.float32, layout = torch.strided, device = device(type='cpu'));  cos = None
    to_18: "f32[1, 128]" = torch.ops.aten.to.dtype_layout(sin, dtype = torch.float32, layout = torch.strided, device = device(type='cpu'));  sin = None
    cat: "f32[1, 256]" = torch.ops.aten.cat.default([to_17, to_18], -1);  to_17 = to_18 = None
    mul_3: "f32[1]" = torch.ops.aten.mul.Tensor(to_11, 1000.0);  to_11 = None
    _tensor_constant1: "i32[]" = self._tensor_constant1
    lift_fresh_copy_1: "i32[]" = torch.ops.aten.lift_fresh_copy.default(_tensor_constant1);  _tensor_constant1 = None
    log_1: "f32[]" = torch.ops.aten.log.default(lift_fresh_copy_1);  lift_fresh_copy_1 = None
    neg_1: "f32[]" = torch.ops.aten.neg.default(log_1);  log_1 = None
    arange_1: "f32[128]" = torch.ops.aten.arange.start_step(0, 128, dtype = torch.float32, device = device(type='cpu'), pin_memory = False)
    mul_4: "f32[128]" = torch.ops.aten.mul.Tensor(neg_1, arange_1);  neg_1 = arange_1 = None
    div_1: "f32[128]" = torch.ops.aten.div.Tensor(mul_4, 128);  mul_4 = None
    to_19: "f32[128]" = torch.ops.aten.to.dtype_layout(div_1, dtype = torch.float32, layout = torch.strided, device = device(type='cpu'));  div_1 = None
    exp_1: "f32[128]" = torch.ops.aten.exp.default(to_19);  to_19 = None
    unsqueeze_2: "f32[1, 1]" = torch.ops.aten.unsqueeze.default(mul_3, 1);  mul_3 = None
    unsqueeze_3: "f32[1, 128]" = torch.ops.aten.unsqueeze.default(exp_1, 0);  exp_1 = None
    mul_5: "f32[1, 128]" = torch.ops.aten.mul.Tensor(unsqueeze_2, unsqueeze_3);  unsqueeze_2 = unsqueeze_3 = None
    to_20: "f32[1, 128]" = torch.ops.aten.to.dtype_layout(mul_5, dtype = torch.float32, layout = torch.strided, device = device(type='cpu'));  mul_5 = None
    cos_1: "f32[1, 128]" = torch.ops.aten.cos.default(to_20)
    to_21: "f32[1, 128]" = torch.ops.aten.to.dtype_layout(to_20, dtype = torch.float32, layout = torch.strided, device = device(type='cpu'));  to_20 = None
    sin_1: "f32[1, 128]" = torch.ops.aten.sin.default(to_21);  to_21 = None
    to_22: "f32[1, 128]" = torch.ops.aten.to.dtype_layout(cos_1, dtype = torch.float32, layout = torch.strided, device = device(type='cpu'));  cos_1 = None
    to_23: "f32[1, 128]" = torch.ops.aten.to.dtype_layout(sin_1, dtype = torch.float32, layout = torch.strided, device = device(type='cpu'));  sin_1 = None
    cat_1: "f32[1, 256]" = torch.ops.aten.cat.default([to_22, to_23], -1);  to_22 = to_23 = None
    
     # File: /Users/hellorahul/Projects/keras/keras/src/backend/torch/layer.py:41 in forward, code: return Operation.__call__(self, *args, **kwargs)
    to_24: "f32[1, 256]" = torch.ops.aten.to.dtype_layout(cat_1, dtype = torch.float32, layout = torch.strided, device = device(type='cpu'));  cat_1 = None
    _param_constant0: "f32[256, 256]" = self._param_constant0
    to_25: "f32[256, 256]" = torch.ops.aten.to.dtype_layout(_param_constant0, dtype = torch.float32, layout = torch.strided, device = device(type='cpu'));  _param_constant0 = None
    matmul: "f32[1, 256]" = torch.ops.aten.matmul.default(to_24, to_25);  to_24 = to_25 = None
    to_26: "f32[1, 256]" = torch.ops.aten.to.dtype_layout(matmul, dtype = torch.float32, layout = torch.strided, device = device(type='cpu'));  matmul = None
    _param_constant1: "f32[256]" = self._param_constant1
    to_27: "f32[256]" = torch.ops.aten.to.dtype_layout(_param_constant1, dtype = torch.float32, layout = torch.strided, device = device(type='cpu'));  _param_constant1 = None
    add: "f32[1, 256]" = torch.ops.aten.add.Tensor(to_26, to_27);  to_26 = to_27 = None
    to_28: "f32[1, 256]" = torch.ops.aten.to.dtype_layout(add, dtype = torch.float32, layout = torch.strided, device = device(type='cpu'));  add = None
    silu: "f32[1, 256]" = torch.ops.aten.silu.default(to_28);  to_28 = None
    to_29: "f32[1, 256]" = torch.ops.aten.to.dtype_layout(silu, dtype = torch.float32, layout = torch.strided, device = device(type='cpu'));  silu = None
    _param_constant2: "f32[256, 256]" = self._param_constant2
    to_30: "f32[256, 256]" = torch.ops.aten.to.dtype_layout(_param_constant2, dtype = torch.float32, layout = torch.strided, device = device(type='cpu'));  _param_constant2 = None
    matmul_1: "f32[1, 256]" = torch.ops.aten.matmul.default(to_29, to_30);  to_29 = to_30 = None
    to_31: "f32[1, 256]" = torch.ops.aten.to.dtype_layout(matmul_1, dtype = torch.float32, layout = torch.strided, device = device(type='cpu'));  matmul_1 = None
    _param_constant3: "f32[256]" = self._param_constant3
    to_32: "f32[256]" = torch.ops.aten.to.dtype_layout(_param_constant3, dtype = torch.float32, layout = torch.strided, device = device(type='cpu'));  _param_constant3 = None
    add_1: "f32[1, 256]" = torch.ops.aten.add.Tensor(to_31, to_32);  to_31 = to_32 = None
    to_33: "f32[1, 256]" = torch.ops.aten.to.dtype_layout(cat, dtype = torch.float32, layout = torch.strided, device = device(type='cpu'));  cat = None
    _param_constant4: "f32[256, 256]" = self._param_constant4
    to_34: "f32[256, 256]" = torch.ops.aten.to.dtype_layout(_param_constant4, dtype = torch.float32, layout = torch.strided, device = device(type='cpu'));  _param_constant4 = None
    matmul_2: "f32[1, 256]" = torch.ops.aten.matmul.default(to_33, to_34);  to_33 = to_34 = None
    to_35: "f32[1, 256]" = torch.ops.aten.to.dtype_layout(matmul_2, dtype = torch.float32, layout = torch.strided, device = device(type='cpu'));  matmul_2 = None
    _param_constant5: "f32[256]" = self._param_constant5
    to_36: "f32[256]" = torch.ops.aten.to.dtype_layout(_param_constant5, dtype = torch.float32, layout = torch.strided, device = device(type='cpu'));  _param_constant5 = None
    add_2: "f32[1, 256]" = torch.ops.aten.add.Tensor(to_35, to_36);  to_35 = to_36 = None
    to_37: "f32[1, 256]" = torch.ops.aten.to.dtype_layout(add_2, dtype = torch.float32, layout = torch.strided, device = device(type='cpu'));  add_2 = None
    silu_1: "f32[1, 256]" = torch.ops.aten.silu.default(to_37);  to_37 = None
    to_38: "f32[1, 256]" = torch.ops.aten.to.dtype_layout(silu_1, dtype = torch.float32, layout = torch.strided, device = device(type='cpu'));  silu_1 = None
    _param_constant6: "f32[256, 256]" = self._param_constant6
    to_39: "f32[256, 256]" = torch.ops.aten.to.dtype_layout(_param_constant6, dtype = torch.float32, layout = torch.strided, device = device(type='cpu'));  _param_constant6 = None
    matmul_3: "f32[1, 256]" = torch.ops.aten.matmul.default(to_38, to_39);  to_38 = to_39 = None
    to_40: "f32[1, 256]" = torch.ops.aten.to.dtype_layout(matmul_3, dtype = torch.float32, layout = torch.strided, device = device(type='cpu'));  matmul_3 = None
    _param_constant7: "f32[256]" = self._param_constant7
    to_41: "f32[256]" = torch.ops.aten.to.dtype_layout(_param_constant7, dtype = torch.float32, layout = torch.strided, device = device(type='cpu'));  _param_constant7 = None
    add_3: "f32[1, 256]" = torch.ops.aten.add.Tensor(to_40, to_41);  to_40 = to_41 = None
    
     # File: /Users/hellorahul/Projects/keras/keras/src/backend/torch/layer.py:41 in forward, code: return Operation.__call__(self, *args, **kwargs)
    to_42: "f32[1, 16, 3]" = torch.ops.aten.to.dtype_layout(to_9, dtype = torch.float32, layout = torch.strided, device = device(type='cpu'));  to_9 = None
    to_43: "f32[1, 16, 3]" = torch.ops.aten.to.dtype_layout(to_5, dtype = torch.float32, layout = torch.strided, device = device(type='cpu'));  to_5 = None
    cat_2: "f32[1, 32, 3]" = torch.ops.aten.cat.default([to_42, to_43], 1);  to_42 = to_43 = None
    to_44: "f32[1, 256]" = torch.ops.aten.to.dtype_layout(add_1, dtype = torch.float32, layout = torch.strided, device = device(type='cpu'));  add_1 = None
    to_45: "f32[1, 256]" = torch.ops.aten.to.dtype_layout(add_3, dtype = torch.float32, layout = torch.strided, device = device(type='cpu'));  add_3 = None
    add_4: "f32[1, 256]" = torch.ops.aten.add.Tensor(to_44, to_45);  to_44 = to_45 = None
    
     # File: /Users/hellorahul/Projects/keras/keras/src/backend/torch/layer.py:41 in forward, code: return Operation.__call__(self, *args, **kwargs)
    to_46: "f32[1, 64]" = torch.ops.aten.to.dtype_layout(to_13, dtype = torch.float32, layout = torch.strided, device = device(type='cpu'));  to_13 = None
    _param_constant8: "f32[64, 256]" = self._param_constant8
    to_47: "f32[64, 256]" = torch.ops.aten.to.dtype_layout(_param_constant8, dtype = torch.float32, layout = torch.strided, device = device(type='cpu'));  _param_constant8 = None
    matmul_4: "f32[1, 256]" = torch.ops.aten.matmul.default(to_46, to_47);  to_46 = to_47 = None
    to_48: "f32[1, 256]" = torch.ops.aten.to.dtype_layout(matmul_4, dtype = torch.float32, layout = torch.strided, device = device(type='cpu'));  matmul_4 = None
    _param_constant9: "f32[256]" = self._param_constant9
    to_49: "f32[256]" = torch.ops.aten.to.dtype_layout(_param_constant9, dtype = torch.float32, layout = torch.strided, device = device(type='cpu'));  _param_constant9 = None
    add_5: "f32[1, 256]" = torch.ops.aten.add.Tensor(to_48, to_49);  to_48 = to_49 = None
    to_50: "f32[1, 256]" = torch.ops.aten.to.dtype_layout(add_5, dtype = torch.float32, layout = torch.strided, device = device(type='cpu'));  add_5 = None
    silu_2: "f32[1, 256]" = torch.ops.aten.silu.default(to_50);  to_50 = None
    to_51: "f32[1, 256]" = torch.ops.aten.to.dtype_layout(silu_2, dtype = torch.float32, layout = torch.strided, device = device(type='cpu'));  silu_2 = None
    _param_constant10: "f32[256, 256]" = self._param_constant10
    to_52: "f32[256, 256]" = torch.ops.aten.to.dtype_layout(_param_constant10, dtype = torch.float32, layout = torch.strided, device = device(type='cpu'));  _param_constant10 = None
    matmul_5: "f32[1, 256]" = torch.ops.aten.matmul.default(to_51, to_52);  to_51 = to_52 = None
    to_53: "f32[1, 256]" = torch.ops.aten.to.dtype_layout(matmul_5, dtype = torch.float32, layout = torch.strided, device = device(type='cpu'));  matmul_5 = None
    _param_constant11: "f32[256]" = self._param_constant11
    to_54: "f32[256]" = torch.ops.aten.to.dtype_layout(_param_constant11, dtype = torch.float32, layout = torch.strided, device = device(type='cpu'));  _param_constant11 = None
    add_6: "f32[1, 256]" = torch.ops.aten.add.Tensor(to_53, to_54);  to_53 = to_54 = None
    
     # File: /Users/hellorahul/Projects/keras/keras/src/backend/torch/layer.py:41 in forward, code: return Operation.__call__(self, *args, **kwargs)
    to_55: "f32[1, 256]" = torch.ops.aten.to.dtype_layout(add_4, dtype = torch.float32, layout = torch.strided, device = device(type='cpu'));  add_4 = None
    to_56: "f32[1, 256]" = torch.ops.aten.to.dtype_layout(add_6, dtype = torch.float32, layout = torch.strided, device = device(type='cpu'));  add_6 = None
    add_7: "f32[1, 256]" = torch.ops.aten.add.Tensor(to_55, to_56);  to_55 = to_56 = None
    
     # File: /Users/hellorahul/Projects/keras/keras/src/backend/torch/layer.py:41 in forward, code: return Operation.__call__(self, *args, **kwargs)
    select: "f32[1, 32]" = torch.ops.aten.select.int(cat_2, 2, 0)
    
     # File: /Users/hellorahul/Projects/keras/keras/src/backend/torch/layer.py:41 in forward, code: return Operation.__call__(self, *args, **kwargs)
    arange_2: "f32[4]" = torch.ops.aten.arange.start_step(0, 8, 2, dtype = torch.float32, device = device(type='cpu'), pin_memory = False)
    div_2: "f32[4]" = torch.ops.aten.div.Tensor(arange_2, 8);  arange_2 = None
    pow_1: "f32[4]" = torch.ops.aten.pow.Scalar(10000, div_2);  div_2 = None
    reciprocal: "f32[4]" = torch.ops.aten.reciprocal.default(pow_1);  pow_1 = None
    mul_6: "f32[4]" = torch.ops.aten.mul.Tensor(reciprocal, 1.0);  reciprocal = None
    to_57: "f32[1, 32]" = torch.ops.aten.to.dtype_layout(select, dtype = torch.float32, layout = torch.strided, device = device(type='cpu'));  select = None
    to_58: "f32[4]" = torch.ops.aten.to.dtype_layout(mul_6, dtype = torch.float32, layout = torch.strided, device = device(type='cpu'));  mul_6 = None
    einsum: "f32[1, 32, 4]" = torch.ops.aten.einsum.default('...n,d->...nd', [to_57, to_58]);  to_57 = to_58 = None
    to_59: "f32[1, 32, 4]" = torch.ops.aten.to.dtype_layout(einsum, dtype = torch.float32, layout = torch.strided, device = device(type='cpu'));  einsum = None
    cos_2: "f32[1, 32, 4]" = torch.ops.aten.cos.default(to_59)
    to_60: "f32[1, 32, 4]" = torch.ops.aten.to.dtype_layout(to_59, dtype = torch.float32, layout = torch.strided, device = device(type='cpu'));  to_59 = None
    sin_2: "f32[1, 32, 4]" = torch.ops.aten.sin.default(to_60);  to_60 = None
    to_61: "f32[1, 32, 4]" = torch.ops.aten.to.dtype_layout(cos_2, dtype = torch.float32, layout = torch.strided, device = device(type='cpu'));  cos_2 = None
    to_62: "f32[1, 32, 4]" = torch.ops.aten.to.dtype_layout(sin_2, dtype = torch.float32, layout = torch.strided, device = device(type='cpu'));  sin_2 = None
    stack: "f32[1, 32, 4, 2]" = torch.ops.aten.stack.default([to_61, to_62], -1);  to_61 = to_62 = None
    
     # File: /Users/hellorahul/Projects/keras/keras/src/backend/torch/layer.py:41 in forward, code: return Operation.__call__(self, *args, **kwargs)
    select_1: "f32[1, 32]" = torch.ops.aten.select.int(cat_2, 2, 1)
    
     # File: /Users/hellorahul/Projects/keras/keras/src/backend/torch/layer.py:41 in forward, code: return Operation.__call__(self, *args, **kwargs)
    arange_3: "f32[14]" = torch.ops.aten.arange.start_step(0, 28, 2, dtype = torch.float32, device = device(type='cpu'), pin_memory = False)
    div_3: "f32[14]" = torch.ops.aten.div.Tensor(arange_3, 28);  arange_3 = None
    pow_2: "f32[14]" = torch.ops.aten.pow.Scalar(10000, div_3);  div_3 = None
    reciprocal_1: "f32[14]" = torch.ops.aten.reciprocal.default(pow_2);  pow_2 = None
    mul_7: "f32[14]" = torch.ops.aten.mul.Tensor(reciprocal_1, 1.0);  reciprocal_1 = None
    to_63: "f32[1, 32]" = torch.ops.aten.to.dtype_layout(select_1, dtype = torch.float32, layout = torch.strided, device = device(type='cpu'));  select_1 = None
    to_64: "f32[14]" = torch.ops.aten.to.dtype_layout(mul_7, dtype = torch.float32, layout = torch.strided, device = device(type='cpu'));  mul_7 = None
    einsum_1: "f32[1, 32, 14]" = torch.ops.aten.einsum.default('...n,d->...nd', [to_63, to_64]);  to_63 = to_64 = None
    to_65: "f32[1, 32, 14]" = torch.ops.aten.to.dtype_layout(einsum_1, dtype = torch.float32, layout = torch.strided, device = device(type='cpu'));  einsum_1 = None
    cos_3: "f32[1, 32, 14]" = torch.ops.aten.cos.default(to_65)
    to_66: "f32[1, 32, 14]" = torch.ops.aten.to.dtype_layout(to_65, dtype = torch.float32, layout = torch.strided, device = device(type='cpu'));  to_65 = None
    sin_3: "f32[1, 32, 14]" = torch.ops.aten.sin.default(to_66);  to_66 = None
    to_67: "f32[1, 32, 14]" = torch.ops.aten.to.dtype_layout(cos_3, dtype = torch.float32, layout = torch.strided, device = device(type='cpu'));  cos_3 = None
    to_68: "f32[1, 32, 14]" = torch.ops.aten.to.dtype_layout(sin_3, dtype = torch.float32, layout = torch.strided, device = device(type='cpu'));  sin_3 = None
    stack_1: "f32[1, 32, 14, 2]" = torch.ops.aten.stack.default([to_67, to_68], -1);  to_67 = to_68 = None
    
     # File: /Users/hellorahul/Projects/keras/keras/src/backend/torch/layer.py:41 in forward, code: return Operation.__call__(self, *args, **kwargs)
    select_2: "f32[1, 32]" = torch.ops.aten.select.int(cat_2, 2, 2);  cat_2 = None
    
     # File: /Users/hellorahul/Projects/keras/keras/src/backend/torch/layer.py:41 in forward, code: return Operation.__call__(self, *args, **kwargs)
    arange_4: "f32[14]" = torch.ops.aten.arange.start_step(0, 28, 2, dtype = torch.float32, device = device(type='cpu'), pin_memory = False)
    div_4: "f32[14]" = torch.ops.aten.div.Tensor(arange_4, 28);  arange_4 = None
    pow_3: "f32[14]" = torch.ops.aten.pow.Scalar(10000, div_4);  div_4 = None
    reciprocal_2: "f32[14]" = torch.ops.aten.reciprocal.default(pow_3);  pow_3 = None
    mul_8: "f32[14]" = torch.ops.aten.mul.Tensor(reciprocal_2, 1.0);  reciprocal_2 = None
    to_69: "f32[1, 32]" = torch.ops.aten.to.dtype_layout(select_2, dtype = torch.float32, layout = torch.strided, device = device(type='cpu'));  select_2 = None
    to_70: "f32[14]" = torch.ops.aten.to.dtype_layout(mul_8, dtype = torch.float32, layout = torch.strided, device = device(type='cpu'));  mul_8 = None
    einsum_2: "f32[1, 32, 14]" = torch.ops.aten.einsum.default('...n,d->...nd', [to_69, to_70]);  to_69 = to_70 = None
    to_71: "f32[1, 32, 14]" = torch.ops.aten.to.dtype_layout(einsum_2, dtype = torch.float32, layout = torch.strided, device = device(type='cpu'));  einsum_2 = None
    cos_4: "f32[1, 32, 14]" = torch.ops.aten.cos.default(to_71)
    to_72: "f32[1, 32, 14]" = torch.ops.aten.to.dtype_layout(to_71, dtype = torch.float32, layout = torch.strided, device = device(type='cpu'));  to_71 = None
    sin_4: "f32[1, 32, 14]" = torch.ops.aten.sin.default(to_72);  to_72 = None
    to_73: "f32[1, 32, 14]" = torch.ops.aten.to.dtype_layout(cos_4, dtype = torch.float32, layout = torch.strided, device = device(type='cpu'));  cos_4 = None
    to_74: "f32[1, 32, 14]" = torch.ops.aten.to.dtype_layout(sin_4, dtype = torch.float32, layout = torch.strided, device = device(type='cpu'));  sin_4 = None
    stack_2: "f32[1, 32, 14, 2]" = torch.ops.aten.stack.default([to_73, to_74], -1);  to_73 = to_74 = None
    
     # File: /Users/hellorahul/Projects/keras/keras/src/backend/torch/layer.py:41 in forward, code: return Operation.__call__(self, *args, **kwargs)
    to_75: "f32[1, 32, 4, 2]" = torch.ops.aten.to.dtype_layout(stack, dtype = torch.float32, layout = torch.strided, device = device(type='cpu'));  stack = None
    to_76: "f32[1, 32, 14, 2]" = torch.ops.aten.to.dtype_layout(stack_1, dtype = torch.float32, layout = torch.strided, device = device(type='cpu'));  stack_1 = None
    to_77: "f32[1, 32, 14, 2]" = torch.ops.aten.to.dtype_layout(stack_2, dtype = torch.float32, layout = torch.strided, device = device(type='cpu'));  stack_2 = None
    cat_3: "f32[1, 32, 32, 2]" = torch.ops.aten.cat.default([to_75, to_76, to_77], -2);  to_75 = to_76 = to_77 = None
    to_78: "f32[1, 16, 64]" = torch.ops.aten.to.dtype_layout(to_3, dtype = torch.float32, layout = torch.strided, device = device(type='cpu'));  to_3 = None
    _param_constant12: "f32[64, 256]" = self._param_constant12
    to_79: "f32[64, 256]" = torch.ops.aten.to.dtype_layout(_param_constant12, dtype = torch.float32, layout = torch.strided, device = device(type='cpu'));  _param_constant12 = None
    matmul_6: "f32[1, 16, 256]" = torch.ops.aten.matmul.default(to_78, to_79);  to_78 = to_79 = None
    to_80: "f32[1, 16, 256]" = torch.ops.aten.to.dtype_layout(matmul_6, dtype = torch.float32, layout = torch.strided, device = device(type='cpu'));  matmul_6 = None
    _param_constant13: "f32[256]" = self._param_constant13
    to_81: "f32[256]" = torch.ops.aten.to.dtype_layout(_param_constant13, dtype = torch.float32, layout = torch.strided, device = device(type='cpu'));  _param_constant13 = None
    add_8: "f32[1, 16, 256]" = torch.ops.aten.add.Tensor(to_80, to_81);  to_80 = to_81 = None
    to_82: "f32[1, 16, 64]" = torch.ops.aten.to.dtype_layout(to_7, dtype = torch.float32, layout = torch.strided, device = device(type='cpu'));  to_7 = None
    _param_constant14: "f32[64, 256]" = self._param_constant14
    to_83: "f32[64, 256]" = torch.ops.aten.to.dtype_layout(_param_constant14, dtype = torch.float32, layout = torch.strided, device = device(type='cpu'));  _param_constant14 = None
    matmul_7: "f32[1, 16, 256]" = torch.ops.aten.matmul.default(to_82, to_83);  to_82 = to_83 = None
    to_84: "f32[1, 16, 256]" = torch.ops.aten.to.dtype_layout(matmul_7, dtype = torch.float32, layout = torch.strided, device = device(type='cpu'));  matmul_7 = None
    _param_constant15: "f32[256]" = self._param_constant15
    to_85: "f32[256]" = torch.ops.aten.to.dtype_layout(_param_constant15, dtype = torch.float32, layout = torch.strided, device = device(type='cpu'));  _param_constant15 = None
    add_9: "f32[1, 16, 256]" = torch.ops.aten.add.Tensor(to_84, to_85);  to_84 = to_85 = None
    
     # File: /Users/hellorahul/Projects/keras/keras/src/backend/torch/layer.py:41 in forward, code: return Operation.__call__(self, *args, **kwargs)
    to_86: "f32[1, 256]" = torch.ops.aten.to.dtype_layout(add_7, dtype = torch.float32, layout = torch.strided, device = device(type='cpu'));  add_7 = None
    silu_3: "f32[1, 256]" = torch.ops.aten.silu.default(to_86)
    to_87: "f32[1, 256]" = torch.ops.aten.to.dtype_layout(silu_3, dtype = torch.float32, layout = torch.strided, device = device(type='cpu'));  silu_3 = None
    _param_constant16: "f32[256, 1536]" = self._param_constant16
    to_88: "f32[256, 1536]" = torch.ops.aten.to.dtype_layout(_param_constant16, dtype = torch.float32, layout = torch.strided, device = device(type='cpu'));  _param_constant16 = None
    matmul_8: "f32[1, 1536]" = torch.ops.aten.matmul.default(to_87, to_88);  to_87 = to_88 = None
    to_89: "f32[1, 1536]" = torch.ops.aten.to.dtype_layout(matmul_8, dtype = torch.float32, layout = torch.strided, device = device(type='cpu'));  matmul_8 = None
    _param_constant17: "f32[1536]" = self._param_constant17
    to_90: "f32[1536]" = torch.ops.aten.to.dtype_layout(_param_constant17, dtype = torch.float32, layout = torch.strided, device = device(type='cpu'));  _param_constant17 = None
    add_10: "f32[1, 1536]" = torch.ops.aten.add.Tensor(to_89, to_90);  to_89 = to_90 = None
    
     # File: /Users/hellorahul/Projects/keras/keras/src/backend/torch/layer.py:41 in forward, code: return Operation.__call__(self, *args, **kwargs)
    unsqueeze_4: "f32[1, 1, 1536]" = torch.ops.aten.unsqueeze.default(add_10, 1);  add_10 = None
    to_91: "f32[1, 1, 1536]" = torch.ops.aten.to.dtype_layout(unsqueeze_4, dtype = torch.float32, layout = torch.strided, device = device(type='cpu'));  unsqueeze_4 = None
    split = torch.ops.aten.split.Tensor(to_91, 256, -1);  to_91 = None
    getitem: "f32[1, 1, 256]" = split[0]
    getitem_1: "f32[1, 1, 256]" = split[1]
    getitem_2: "f32[1, 1, 256]" = split[2]
    getitem_3: "f32[1, 1, 256]" = split[3]
    getitem_4: "f32[1, 1, 256]" = split[4]
    getitem_5: "f32[1, 1, 256]" = split[5];  split = None
    
     # File: /Users/hellorahul/Projects/keras/keras/src/backend/torch/layer.py:41 in forward, code: return Operation.__call__(self, *args, **kwargs)
    to_92: "f32[1, 256]" = torch.ops.aten.to.dtype_layout(to_86, dtype = torch.float32, layout = torch.strided, device = device(type='cpu'));  to_86 = None
    silu_4: "f32[1, 256]" = torch.ops.aten.silu.default(to_92)
    to_93: "f32[1, 256]" = torch.ops.aten.to.dtype_layout(silu_4, dtype = torch.float32, layout = torch.strided, device = device(type='cpu'));  silu_4 = None
    _param_constant18: "f32[256, 1536]" = self._param_constant18
    to_94: "f32[256, 1536]" = torch.ops.aten.to.dtype_layout(_param_constant18, dtype = torch.float32, layout = torch.strided, device = device(type='cpu'));  _param_constant18 = None
    matmul_9: "f32[1, 1536]" = torch.ops.aten.matmul.default(to_93, to_94);  to_93 = to_94 = None
    to_95: "f32[1, 1536]" = torch.ops.aten.to.dtype_layout(matmul_9, dtype = torch.float32, layout = torch.strided, device = device(type='cpu'));  matmul_9 = None
    _param_constant19: "f32[1536]" = self._param_constant19
    to_96: "f32[1536]" = torch.ops.aten.to.dtype_layout(_param_constant19, dtype = torch.float32, layout = torch.strided, device = device(type='cpu'));  _param_constant19 = None
    add_11: "f32[1, 1536]" = torch.ops.aten.add.Tensor(to_95, to_96);  to_95 = to_96 = None
    
     # File: /Users/hellorahul/Projects/keras/keras/src/backend/torch/layer.py:41 in forward, code: return Operation.__call__(self, *args, **kwargs)
    unsqueeze_5: "f32[1, 1, 1536]" = torch.ops.aten.unsqueeze.default(add_11, 1);  add_11 = None
    to_97: "f32[1, 1, 1536]" = torch.ops.aten.to.dtype_layout(unsqueeze_5, dtype = torch.float32, layout = torch.strided, device = device(type='cpu'));  unsqueeze_5 = None
    split_1 = torch.ops.aten.split.Tensor(to_97, 256, -1);  to_97 = None
    getitem_6: "f32[1, 1, 256]" = split_1[0]
    getitem_7: "f32[1, 1, 256]" = split_1[1]
    getitem_8: "f32[1, 1, 256]" = split_1[2]
    getitem_9: "f32[1, 1, 256]" = split_1[3]
    getitem_10: "f32[1, 1, 256]" = split_1[4]
    getitem_11: "f32[1, 1, 256]" = split_1[5];  split_1 = None
    to_98: "f32[1, 16, 256]" = torch.ops.aten.to.dtype_layout(add_8, dtype = torch.float32, layout = torch.strided, device = device(type='cpu'));  add_8 = None
    to_99: "f32[1, 16, 256]" = torch.ops.aten.to.dtype(to_98, torch.float32);  to_98 = None
    _param_constant20: "f32[256]" = self._param_constant20
    to_100: "f32[256]" = torch.ops.aten.to.dtype_layout(_param_constant20, dtype = torch.float32, layout = torch.strided, device = device(type='cpu'));  _param_constant20 = None
    to_101: "f32[256]" = torch.ops.aten.to.dtype(to_100, torch.float32);  to_100 = None
    _param_constant21: "f32[256]" = self._param_constant21
    to_102: "f32[256]" = torch.ops.aten.to.dtype_layout(_param_constant21, dtype = torch.float32, layout = torch.strided, device = device(type='cpu'));  _param_constant21 = None
    to_103: "f32[256]" = torch.ops.aten.to.dtype(to_102, torch.float32);  to_102 = None
    layer_norm: "f32[1, 16, 256]" = torch.ops.aten.layer_norm.default(to_99, [256], to_101, to_103, 1e-06);  to_101 = to_103 = None
    
     # File: /Users/hellorahul/Projects/keras/keras/src/backend/torch/layer.py:41 in forward, code: return Operation.__call__(self, *args, **kwargs)
    add_12: "f32[1, 1, 256]" = torch.ops.aten.add.Tensor(getitem_1, 1);  getitem_1 = None
    mul_9: "f32[1, 16, 256]" = torch.ops.aten.mul.Tensor(add_12, layer_norm);  add_12 = layer_norm = None
    add_13: "f32[1, 16, 256]" = torch.ops.aten.add.Tensor(mul_9, getitem);  mul_9 = getitem = None
    
     # File: /Users/hellorahul/Projects/keras/keras/src/backend/torch/layer.py:41 in forward, code: return Operation.__call__(self, *args, **kwargs)
    to_104: "f32[1, 16, 256]" = torch.ops.aten.to.dtype_layout(add_13, dtype = torch.float32, layout = torch.strided, device = device(type='cpu'));  add_13 = None
    _param_constant22: "f32[256, 768]" = self._param_constant22
    to_105: "f32[256, 768]" = torch.ops.aten.to.dtype_layout(_param_constant22, dtype = torch.float32, layout = torch.strided, device = device(type='cpu'));  _param_constant22 = None
    matmul_10: "f32[1, 16, 768]" = torch.ops.aten.matmul.default(to_104, to_105);  to_104 = to_105 = None
    to_106: "f32[1, 16, 768]" = torch.ops.aten.to.dtype_layout(matmul_10, dtype = torch.float32, layout = torch.strided, device = device(type='cpu'));  matmul_10 = None
    _param_constant23: "f32[768]" = self._param_constant23
    to_107: "f32[768]" = torch.ops.aten.to.dtype_layout(_param_constant23, dtype = torch.float32, layout = torch.strided, device = device(type='cpu'));  _param_constant23 = None
    add_14: "f32[1, 16, 768]" = torch.ops.aten.add.Tensor(to_106, to_107);  to_106 = to_107 = None
    
     # File: /Users/hellorahul/Projects/keras/keras/src/backend/torch/layer.py:41 in forward, code: return Operation.__call__(self, *args, **kwargs)
    to_108: "f32[1, 16, 768]" = torch.ops.aten.to.dtype_layout(add_14, dtype = torch.float32, layout = torch.strided, device = device(type='cpu'));  add_14 = None
    reshape: "f32[1, 16, 3, 4, 64]" = torch.ops.aten.reshape.default(to_108, [1, 16, 3, 4, 64]);  to_108 = None
    to_109: "f32[1, 16, 3, 4, 64]" = torch.ops.aten.to.dtype_layout(reshape, dtype = torch.float32, layout = torch.strided, device = device(type='cpu'));  reshape = None
    permute: "f32[3, 1, 4, 16, 64]" = torch.ops.aten.permute.default(to_109, [2, 0, 3, 1, 4]);  to_109 = None
    to_110: "f32[3, 1, 4, 16, 64]" = torch.ops.aten.to.dtype_layout(permute, dtype = torch.float32, layout = torch.strided, device = device(type='cpu'));  permute = None
    split_2 = torch.ops.aten.split.Tensor(to_110, 1);  to_110 = None
    getitem_12: "f32[1, 1, 4, 16, 64]" = split_2[0]
    getitem_13: "f32[1, 1, 4, 16, 64]" = split_2[1]
    getitem_14: "f32[1, 1, 4, 16, 64]" = split_2[2];  split_2 = None
    to_111: "f32[1, 1, 4, 16, 64]" = torch.ops.aten.to.dtype_layout(getitem_12, dtype = torch.float32, layout = torch.strided, device = device(type='cpu'));  getitem_12 = None
    squeeze: "f32[1, 4, 16, 64]" = torch.ops.aten.squeeze.dim(to_111, 0);  to_111 = None
    to_112: "f32[1, 1, 4, 16, 64]" = torch.ops.aten.to.dtype_layout(getitem_13, dtype = torch.float32, layout = torch.strided, device = device(type='cpu'));  getitem_13 = None
    squeeze_1: "f32[1, 4, 16, 64]" = torch.ops.aten.squeeze.dim(to_112, 0);  to_112 = None
    to_113: "f32[1, 1, 4, 16, 64]" = torch.ops.aten.to.dtype_layout(getitem_14, dtype = torch.float32, layout = torch.strided, device = device(type='cpu'));  getitem_14 = None
    squeeze_2: "f32[1, 4, 16, 64]" = torch.ops.aten.squeeze.dim(to_113, 0);  to_113 = None
    
     # File: /Users/hellorahul/Projects/keras/keras/src/backend/torch/layer.py:41 in forward, code: return Operation.__call__(self, *args, **kwargs)
    to_114: "f32[1, 4, 16, 64]" = torch.ops.aten.to.dtype_layout(squeeze, dtype = torch.float32, layout = torch.strided, device = device(type='cpu'));  squeeze = None
    square: "f32[1, 4, 16, 64]" = torch.ops.aten.square.default(to_114)
    to_115: "f32[1, 4, 16, 64]" = torch.ops.aten.to.dtype_layout(square, dtype = torch.float32, layout = torch.strided, device = device(type='cpu'));  square = None
    mean: "f32[1, 4, 16, 1]" = torch.ops.aten.mean.dim(to_115, [-1], True);  to_115 = None
    add_15: "f32[1, 4, 16, 1]" = torch.ops.aten.add.Tensor(mean, 1e-06);  mean = None
    to_116: "f32[1, 4, 16, 1]" = torch.ops.aten.to.dtype_layout(add_15, dtype = torch.float32, layout = torch.strided, device = device(type='cpu'));  add_15 = None
    to_117: "f32[1, 4, 16, 1]" = torch.ops.aten.to.dtype_layout(to_116, dtype = torch.float32, layout = torch.strided, device = device(type='cpu'));  to_116 = None
    rsqrt: "f32[1, 4, 16, 1]" = torch.ops.aten.rsqrt.default(to_117);  to_117 = None
    mul_10: "f32[1, 4, 16, 64]" = torch.ops.aten.mul.Tensor(to_114, rsqrt);  to_114 = rsqrt = None
    _param_constant24: "f32[64]" = self._param_constant24
    mul_11: "f32[1, 4, 16, 64]" = torch.ops.aten.mul.Tensor(mul_10, _param_constant24);  mul_10 = _param_constant24 = None
    to_118: "f32[1, 4, 16, 64]" = torch.ops.aten.to.dtype_layout(squeeze_1, dtype = torch.float32, layout = torch.strided, device = device(type='cpu'));  squeeze_1 = None
    square_1: "f32[1, 4, 16, 64]" = torch.ops.aten.square.default(to_118)
    to_119: "f32[1, 4, 16, 64]" = torch.ops.aten.to.dtype_layout(square_1, dtype = torch.float32, layout = torch.strided, device = device(type='cpu'));  square_1 = None
    mean_1: "f32[1, 4, 16, 1]" = torch.ops.aten.mean.dim(to_119, [-1], True);  to_119 = None
    add_16: "f32[1, 4, 16, 1]" = torch.ops.aten.add.Tensor(mean_1, 1e-06);  mean_1 = None
    to_120: "f32[1, 4, 16, 1]" = torch.ops.aten.to.dtype_layout(add_16, dtype = torch.float32, layout = torch.strided, device = device(type='cpu'));  add_16 = None
    to_121: "f32[1, 4, 16, 1]" = torch.ops.aten.to.dtype_layout(to_120, dtype = torch.float32, layout = torch.strided, device = device(type='cpu'));  to_120 = None
    rsqrt_1: "f32[1, 4, 16, 1]" = torch.ops.aten.rsqrt.default(to_121);  to_121 = None
    mul_12: "f32[1, 4, 16, 64]" = torch.ops.aten.mul.Tensor(to_118, rsqrt_1);  to_118 = rsqrt_1 = None
    _param_constant25: "f32[64]" = self._param_constant25
    mul_13: "f32[1, 4, 16, 64]" = torch.ops.aten.mul.Tensor(mul_12, _param_constant25);  mul_12 = _param_constant25 = None
    
     # File: /Users/hellorahul/Projects/keras/keras/src/backend/torch/layer.py:41 in forward, code: return Operation.__call__(self, *args, **kwargs)
    to_122: "f32[1, 16, 256]" = torch.ops.aten.to.dtype_layout(add_9, dtype = torch.float32, layout = torch.strided, device = device(type='cpu'));  add_9 = None
    to_123: "f32[1, 16, 256]" = torch.ops.aten.to.dtype(to_122, torch.float32);  to_122 = None
    _param_constant26: "f32[256]" = self._param_constant26
    to_124: "f32[256]" = torch.ops.aten.to.dtype_layout(_param_constant26, dtype = torch.float32, layout = torch.strided, device = device(type='cpu'));  _param_constant26 = None
    to_125: "f32[256]" = torch.ops.aten.to.dtype(to_124, torch.float32);  to_124 = None
    _param_constant27: "f32[256]" = self._param_constant27
    to_126: "f32[256]" = torch.ops.aten.to.dtype_layout(_param_constant27, dtype = torch.float32, layout = torch.strided, device = device(type='cpu'));  _param_constant27 = None
    to_127: "f32[256]" = torch.ops.aten.to.dtype(to_126, torch.float32);  to_126 = None
    layer_norm_1: "f32[1, 16, 256]" = torch.ops.aten.layer_norm.default(to_123, [256], to_125, to_127, 1e-06);  to_125 = to_127 = None
    
     # File: /Users/hellorahul/Projects/keras/keras/src/backend/torch/layer.py:41 in forward, code: return Operation.__call__(self, *args, **kwargs)
    add_17: "f32[1, 1, 256]" = torch.ops.aten.add.Tensor(getitem_7, 1);  getitem_7 = None
    mul_14: "f32[1, 16, 256]" = torch.ops.aten.mul.Tensor(add_17, layer_norm_1);  add_17 = layer_norm_1 = None
    add_18: "f32[1, 16, 256]" = torch.ops.aten.add.Tensor(mul_14, getitem_6);  mul_14 = getitem_6 = None
    
     # File: /Users/hellorahul/Projects/keras/keras/src/backend/torch/layer.py:41 in forward, code: return Operation.__call__(self, *args, **kwargs)
    to_128: "f32[1, 16, 256]" = torch.ops.aten.to.dtype_layout(add_18, dtype = torch.float32, layout = torch.strided, device = device(type='cpu'));  add_18 = None
    _param_constant28: "f32[256, 768]" = self._param_constant28
    to_129: "f32[256, 768]" = torch.ops.aten.to.dtype_layout(_param_constant28, dtype = torch.float32, layout = torch.strided, device = device(type='cpu'));  _param_constant28 = None
    matmul_11: "f32[1, 16, 768]" = torch.ops.aten.matmul.default(to_128, to_129);  to_128 = to_129 = None
    to_130: "f32[1, 16, 768]" = torch.ops.aten.to.dtype_layout(matmul_11, dtype = torch.float32, layout = torch.strided, device = device(type='cpu'));  matmul_11 = None
    _param_constant29: "f32[768]" = self._param_constant29
    to_131: "f32[768]" = torch.ops.aten.to.dtype_layout(_param_constant29, dtype = torch.float32, layout = torch.strided, device = device(type='cpu'));  _param_constant29 = None
    add_19: "f32[1, 16, 768]" = torch.ops.aten.add.Tensor(to_130, to_131);  to_130 = to_131 = None
    
     # File: /Users/hellorahul/Projects/keras/keras/src/backend/torch/layer.py:41 in forward, code: return Operation.__call__(self, *args, **kwargs)
    to_132: "f32[1, 16, 768]" = torch.ops.aten.to.dtype_layout(add_19, dtype = torch.float32, layout = torch.strided, device = device(type='cpu'));  add_19 = None
    reshape_1: "f32[1, 16, 3, 4, 64]" = torch.ops.aten.reshape.default(to_132, [1, 16, 3, 4, 64]);  to_132 = None
    to_133: "f32[1, 16, 3, 4, 64]" = torch.ops.aten.to.dtype_layout(reshape_1, dtype = torch.float32, layout = torch.strided, device = device(type='cpu'));  reshape_1 = None
    permute_1: "f32[3, 1, 4, 16, 64]" = torch.ops.aten.permute.default(to_133, [2, 0, 3, 1, 4]);  to_133 = None
    to_134: "f32[3, 1, 4, 16, 64]" = torch.ops.aten.to.dtype_layout(permute_1, dtype = torch.float32, layout = torch.strided, device = device(type='cpu'));  permute_1 = None
    split_3 = torch.ops.aten.split.Tensor(to_134, 1);  to_134 = None
    getitem_15: "f32[1, 1, 4, 16, 64]" = split_3[0]
    getitem_16: "f32[1, 1, 4, 16, 64]" = split_3[1]
    getitem_17: "f32[1, 1, 4, 16, 64]" = split_3[2];  split_3 = None
    to_135: "f32[1, 1, 4, 16, 64]" = torch.ops.aten.to.dtype_layout(getitem_15, dtype = torch.float32, layout = torch.strided, device = device(type='cpu'));  getitem_15 = None
    squeeze_3: "f32[1, 4, 16, 64]" = torch.ops.aten.squeeze.dim(to_135, 0);  to_135 = None
    to_136: "f32[1, 1, 4, 16, 64]" = torch.ops.aten.to.dtype_layout(getitem_16, dtype = torch.float32, layout = torch.strided, device = device(type='cpu'));  getitem_16 = None
    squeeze_4: "f32[1, 4, 16, 64]" = torch.ops.aten.squeeze.dim(to_136, 0);  to_136 = None
    to_137: "f32[1, 1, 4, 16, 64]" = torch.ops.aten.to.dtype_layout(getitem_17, dtype = torch.float32, layout = torch.strided, device = device(type='cpu'));  getitem_17 = None
    squeeze_5: "f32[1, 4, 16, 64]" = torch.ops.aten.squeeze.dim(to_137, 0);  to_137 = None
    
     # File: /Users/hellorahul/Projects/keras/keras/src/backend/torch/layer.py:41 in forward, code: return Operation.__call__(self, *args, **kwargs)
    to_138: "f32[1, 4, 16, 64]" = torch.ops.aten.to.dtype_layout(squeeze_3, dtype = torch.float32, layout = torch.strided, device = device(type='cpu'));  squeeze_3 = None
    square_2: "f32[1, 4, 16, 64]" = torch.ops.aten.square.default(to_138)
    to_139: "f32[1, 4, 16, 64]" = torch.ops.aten.to.dtype_layout(square_2, dtype = torch.float32, layout = torch.strided, device = device(type='cpu'));  square_2 = None
    mean_2: "f32[1, 4, 16, 1]" = torch.ops.aten.mean.dim(to_139, [-1], True);  to_139 = None
    add_20: "f32[1, 4, 16, 1]" = torch.ops.aten.add.Tensor(mean_2, 1e-06);  mean_2 = None
    to_140: "f32[1, 4, 16, 1]" = torch.ops.aten.to.dtype_layout(add_20, dtype = torch.float32, layout = torch.strided, device = device(type='cpu'));  add_20 = None
    to_141: "f32[1, 4, 16, 1]" = torch.ops.aten.to.dtype_layout(to_140, dtype = torch.float32, layout = torch.strided, device = device(type='cpu'));  to_140 = None
    rsqrt_2: "f32[1, 4, 16, 1]" = torch.ops.aten.rsqrt.default(to_141);  to_141 = None
    mul_15: "f32[1, 4, 16, 64]" = torch.ops.aten.mul.Tensor(to_138, rsqrt_2);  to_138 = rsqrt_2 = None
    _param_constant30: "f32[64]" = self._param_constant30
    mul_16: "f32[1, 4, 16, 64]" = torch.ops.aten.mul.Tensor(mul_15, _param_constant30);  mul_15 = _param_constant30 = None
    to_142: "f32[1, 4, 16, 64]" = torch.ops.aten.to.dtype_layout(squeeze_4, dtype = torch.float32, layout = torch.strided, device = device(type='cpu'));  squeeze_4 = None
    square_3: "f32[1, 4, 16, 64]" = torch.ops.aten.square.default(to_142)
    to_143: "f32[1, 4, 16, 64]" = torch.ops.aten.to.dtype_layout(square_3, dtype = torch.float32, layout = torch.strided, device = device(type='cpu'));  square_3 = None
    mean_3: "f32[1, 4, 16, 1]" = torch.ops.aten.mean.dim(to_143, [-1], True);  to_143 = None
    add_21: "f32[1, 4, 16, 1]" = torch.ops.aten.add.Tensor(mean_3, 1e-06);  mean_3 = None
    to_144: "f32[1, 4, 16, 1]" = torch.ops.aten.to.dtype_layout(add_21, dtype = torch.float32, layout = torch.strided, device = device(type='cpu'));  add_21 = None
    to_145: "f32[1, 4, 16, 1]" = torch.ops.aten.to.dtype_layout(to_144, dtype = torch.float32, layout = torch.strided, device = device(type='cpu'));  to_144 = None
    rsqrt_3: "f32[1, 4, 16, 1]" = torch.ops.aten.rsqrt.default(to_145);  to_145 = None
    mul_17: "f32[1, 4, 16, 64]" = torch.ops.aten.mul.Tensor(to_142, rsqrt_3);  to_142 = rsqrt_3 = None
    _param_constant31: "f32[64]" = self._param_constant31
    mul_18: "f32[1, 4, 16, 64]" = torch.ops.aten.mul.Tensor(mul_17, _param_constant31);  mul_17 = _param_constant31 = None
    
     # File: /Users/hellorahul/Projects/keras/keras/src/backend/torch/layer.py:41 in forward, code: return Operation.__call__(self, *args, **kwargs)
    to_146: "f32[1, 4, 16, 64]" = torch.ops.aten.to.dtype_layout(mul_16, dtype = torch.float32, layout = torch.strided, device = device(type='cpu'));  mul_16 = None
    to_147: "f32[1, 4, 16, 64]" = torch.ops.aten.to.dtype_layout(mul_11, dtype = torch.float32, layout = torch.strided, device = device(type='cpu'));  mul_11 = None
    cat_4: "f32[1, 4, 32, 64]" = torch.ops.aten.cat.default([to_146, to_147], 2);  to_146 = to_147 = None
    to_148: "f32[1, 4, 16, 64]" = torch.ops.aten.to.dtype_layout(mul_18, dtype = torch.float32, layout = torch.strided, device = device(type='cpu'));  mul_18 = None
    to_149: "f32[1, 4, 16, 64]" = torch.ops.aten.to.dtype_layout(mul_13, dtype = torch.float32, layout = torch.strided, device = device(type='cpu'));  mul_13 = None
    cat_5: "f32[1, 4, 32, 64]" = torch.ops.aten.cat.default([to_148, to_149], 2);  to_148 = to_149 = None
    to_150: "f32[1, 4, 16, 64]" = torch.ops.aten.to.dtype_layout(squeeze_5, dtype = torch.float32, layout = torch.strided, device = device(type='cpu'));  squeeze_5 = None
    to_151: "f32[1, 4, 16, 64]" = torch.ops.aten.to.dtype_layout(squeeze_2, dtype = torch.float32, layout = torch.strided, device = device(type='cpu'));  squeeze_2 = None
    cat_6: "f32[1, 4, 32, 64]" = torch.ops.aten.cat.default([to_150, to_151], 2);  to_150 = to_151 = None
    
     # File: /Users/hellorahul/Projects/keras/keras/src/backend/torch/layer.py:41 in forward, code: return Operation.__call__(self, *args, **kwargs)
    to_152: "f32[1, 32, 32, 2]" = torch.ops.aten.to.dtype_layout(cat_3, dtype = torch.float32, layout = torch.strided, device = device(type='cpu'));  cat_3 = None
    unsqueeze_6: "f32[1, 1, 32, 32, 2]" = torch.ops.aten.unsqueeze.default(to_152, 1)
    to_153: "f32[1, 4, 32, 64]" = torch.ops.aten.to.dtype_layout(cat_4, dtype = torch.float32, layout = torch.strided, device = device(type='cpu'));  cat_4 = None
    reshape_2: "f32[1, 4, 32, 32, 2]" = torch.ops.aten.reshape.default(to_153, [1, 4, 32, -1, 2]);  to_153 = None
    to_154: "f32[1, 4, 32, 64]" = torch.ops.aten.to.dtype_layout(cat_5, dtype = torch.float32, layout = torch.strided, device = device(type='cpu'));  cat_5 = None
    reshape_3: "f32[1, 4, 32, 32, 2]" = torch.ops.aten.reshape.default(to_154, [1, 4, 32, -1, 2]);  to_154 = None
    select_3: "f32[1, 4, 32, 32]" = torch.ops.aten.select.int(reshape_2, 4, 0)
    select_4: "f32[1, 4, 32, 32]" = torch.ops.aten.select.int(reshape_2, 4, 1);  reshape_2 = None
    select_5: "f32[1, 4, 32, 32]" = torch.ops.aten.select.int(reshape_3, 4, 0)
    select_6: "f32[1, 4, 32, 32]" = torch.ops.aten.select.int(reshape_3, 4, 1);  reshape_3 = None
    select_7: "f32[1, 1, 32, 32]" = torch.ops.aten.select.int(unsqueeze_6, 4, 0)
    select_8: "f32[1, 1, 32, 32]" = torch.ops.aten.select.int(unsqueeze_6, 4, 1);  unsqueeze_6 = None
    mul_19: "f32[1, 4, 32, 32]" = torch.ops.aten.mul.Tensor(select_3, select_7)
    mul_20: "f32[1, 4, 32, 32]" = torch.ops.aten.mul.Tensor(select_4, select_8)
    sub: "f32[1, 4, 32, 32]" = torch.ops.aten.sub.Tensor(mul_19, mul_20);  mul_19 = mul_20 = None
    mul_21: "f32[1, 4, 32, 32]" = torch.ops.aten.mul.Tensor(select_3, select_8);  select_3 = None
    mul_22: "f32[1, 4, 32, 32]" = torch.ops.aten.mul.Tensor(select_4, select_7);  select_4 = None
    add_22: "f32[1, 4, 32, 32]" = torch.ops.aten.add.Tensor(mul_21, mul_22);  mul_21 = mul_22 = None
    mul_23: "f32[1, 4, 32, 32]" = torch.ops.aten.mul.Tensor(select_5, select_7)
    mul_24: "f32[1, 4, 32, 32]" = torch.ops.aten.mul.Tensor(select_6, select_8)
    sub_1: "f32[1, 4, 32, 32]" = torch.ops.aten.sub.Tensor(mul_23, mul_24);  mul_23 = mul_24 = None
    mul_25: "f32[1, 4, 32, 32]" = torch.ops.aten.mul.Tensor(select_5, select_8);  select_5 = select_8 = None
    mul_26: "f32[1, 4, 32, 32]" = torch.ops.aten.mul.Tensor(select_6, select_7);  select_6 = select_7 = None
    add_23: "f32[1, 4, 32, 32]" = torch.ops.aten.add.Tensor(mul_25, mul_26);  mul_25 = mul_26 = None
    to_155: "f32[1, 4, 32, 32]" = torch.ops.aten.to.dtype_layout(sub, dtype = torch.float32, layout = torch.strided, device = device(type='cpu'));  sub = None
    to_156: "f32[1, 4, 32, 32]" = torch.ops.aten.to.dtype_layout(add_22, dtype = torch.float32, layout = torch.strided, device = device(type='cpu'));  add_22 = None
    stack_3: "f32[1, 4, 32, 32, 2]" = torch.ops.aten.stack.default([to_155, to_156], -1);  to_155 = to_156 = None
    to_157: "f32[1, 4, 32, 32, 2]" = torch.ops.aten.to.dtype_layout(stack_3, dtype = torch.float32, layout = torch.strided, device = device(type='cpu'));  stack_3 = None
    reshape_4: "f32[1, 4, 32, 64]" = torch.ops.aten.reshape.default(to_157, [1, 4, 32, 64]);  to_157 = None
    to_158: "f32[1, 4, 32, 32]" = torch.ops.aten.to.dtype_layout(sub_1, dtype = torch.float32, layout = torch.strided, device = device(type='cpu'));  sub_1 = None
    to_159: "f32[1, 4, 32, 32]" = torch.ops.aten.to.dtype_layout(add_23, dtype = torch.float32, layout = torch.strided, device = device(type='cpu'));  add_23 = None
    stack_4: "f32[1, 4, 32, 32, 2]" = torch.ops.aten.stack.default([to_158, to_159], -1);  to_158 = to_159 = None
    to_160: "f32[1, 4, 32, 32, 2]" = torch.ops.aten.to.dtype_layout(stack_4, dtype = torch.float32, layout = torch.strided, device = device(type='cpu'));  stack_4 = None
    reshape_5: "f32[1, 4, 32, 64]" = torch.ops.aten.reshape.default(to_160, [1, 4, 32, 64]);  to_160 = None
    
     # File: /Users/hellorahul/Projects/keras/keras/src/backend/torch/layer.py:41 in forward, code: return Operation.__call__(self, *args, **kwargs)
    _tensor_constant2: "i64[]" = self._tensor_constant2
    lift_fresh_copy_2: "i64[]" = torch.ops.aten.lift_fresh_copy.default(_tensor_constant2);  _tensor_constant2 = None
    to_161: "f32[]" = torch.ops.aten.to.device(lift_fresh_copy_2, device(type='cpu'), torch.float32);  lift_fresh_copy_2 = None
    to_162: "f32[]" = torch.ops.aten.to.dtype_layout(to_161, dtype = torch.float32, layout = torch.strided, device = device(type='cpu'));  to_161 = None
    to_163: "f32[]" = torch.ops.aten.to.dtype_layout(to_162, dtype = torch.float32, layout = torch.strided, device = device(type='cpu'));  to_162 = None
    sqrt: "f32[]" = torch.ops.aten.sqrt.default(to_163);  to_163 = None
    reciprocal_3: "f32[]" = torch.ops.aten.reciprocal.default(sqrt);  sqrt = None
    mul_27: "f32[]" = torch.ops.aten.mul.Tensor(reciprocal_3, 1);  reciprocal_3 = None
    zeros: "f32[32, 32]" = torch.ops.aten.zeros.default([32, 32], dtype = torch.float32, device = device(type='cpu'), pin_memory = False)
    to_164: "f32[1, 4, 32, 64]" = torch.ops.aten.to.dtype_layout(reshape_5, dtype = torch.float32, layout = torch.strided, device = device(type='cpu'));  reshape_5 = None
    permute_2: "f32[1, 4, 64, 32]" = torch.ops.aten.permute.default(to_164, [0, 1, 3, 2]);  to_164 = None
    to_165: "f32[1, 4, 32, 64]" = torch.ops.aten.to.dtype_layout(reshape_4, dtype = torch.float32, layout = torch.strided, device = device(type='cpu'));  reshape_4 = None
    to_166: "f32[1, 4, 64, 32]" = torch.ops.aten.to.dtype_layout(permute_2, dtype = torch.float32, layout = torch.strided, device = device(type='cpu'));  permute_2 = None
    matmul_12: "f32[1, 4, 32, 32]" = torch.ops.aten.matmul.default(to_165, to_166);  to_165 = to_166 = None
    mul_28: "f32[1, 4, 32, 32]" = torch.ops.aten.mul.Tensor(matmul_12, mul_27);  matmul_12 = mul_27 = None
    add_: "f32[1, 4, 32, 32]" = torch.ops.aten.add_.Tensor(mul_28, zeros);  mul_28 = zeros = None
    to_167: "f32[1, 4, 32, 32]" = torch.ops.aten.to.dtype_layout(add_, dtype = torch.float32, layout = torch.strided, device = device(type='cpu'));  add_ = None
    softmax: "f32[1, 4, 32, 32]" = torch.ops.aten.softmax.int(to_167, -1);  to_167 = None
    to_168: "f32[1, 4, 32, 32]" = torch.ops.aten.to.dtype_layout(softmax, dtype = torch.float32, layout = torch.strided, device = device(type='cpu'));  softmax = None
    to_169: "f32[1, 4, 32, 64]" = torch.ops.aten.to.dtype_layout(cat_6, dtype = torch.float32, layout = torch.strided, device = device(type='cpu'));  cat_6 = None
    matmul_13: "f32[1, 4, 32, 64]" = torch.ops.aten.matmul.default(to_168, to_169);  to_168 = to_169 = None
    to_170: "f32[1, 4, 32, 64]" = torch.ops.aten.to.dtype_layout(matmul_13, dtype = torch.float32, layout = torch.strided, device = device(type='cpu'));  matmul_13 = None
    permute_3: "f32[1, 32, 4, 64]" = torch.ops.aten.permute.default(to_170, [0, 2, 1, 3]);  to_170 = None
    to_171: "f32[1, 32, 4, 64]" = torch.ops.aten.to.dtype_layout(permute_3, dtype = torch.float32, layout = torch.strided, device = device(type='cpu'));  permute_3 = None
    reshape_6: "f32[1, 32, 256]" = torch.ops.aten.reshape.default(to_171, [1, 32, 256]);  to_171 = None
    
     # File: /Users/hellorahul/Projects/keras/keras/src/backend/torch/layer.py:41 in forward, code: return Operation.__call__(self, *args, **kwargs)
    slice_1: "f32[1, 16, 256]" = torch.ops.aten.slice.Tensor(reshape_6, 1, 0, 16)
    slice_2: "f32[1, 16, 256]" = torch.ops.aten.slice.Tensor(reshape_6, 1, 16, 9223372036854775807);  reshape_6 = None
    
     # File: /Users/hellorahul/Projects/keras/keras/src/backend/torch/layer.py:41 in forward, code: return Operation.__call__(self, *args, **kwargs)
    to_172: "f32[1, 16, 256]" = torch.ops.aten.to.dtype_layout(slice_2, dtype = torch.float32, layout = torch.strided, device = device(type='cpu'));  slice_2 = None
    _param_constant32: "f32[256, 256]" = self._param_constant32
    to_173: "f32[256, 256]" = torch.ops.aten.to.dtype_layout(_param_constant32, dtype = torch.float32, layout = torch.strided, device = device(type='cpu'));  _param_constant32 = None
    matmul_14: "f32[1, 16, 256]" = torch.ops.aten.matmul.default(to_172, to_173);  to_172 = to_173 = None
    to_174: "f32[1, 16, 256]" = torch.ops.aten.to.dtype_layout(matmul_14, dtype = torch.float32, layout = torch.strided, device = device(type='cpu'));  matmul_14 = None
    _param_constant33: "f32[256]" = self._param_constant33
    to_175: "f32[256]" = torch.ops.aten.to.dtype_layout(_param_constant33, dtype = torch.float32, layout = torch.strided, device = device(type='cpu'));  _param_constant33 = None
    add_24: "f32[1, 16, 256]" = torch.ops.aten.add.Tensor(to_174, to_175);  to_174 = to_175 = None
    
     # File: /Users/hellorahul/Projects/keras/keras/src/backend/torch/layer.py:41 in forward, code: return Operation.__call__(self, *args, **kwargs)
    mul_29: "f32[1, 16, 256]" = torch.ops.aten.mul.Tensor(getitem_2, add_24);  getitem_2 = add_24 = None
    add_25: "f32[1, 16, 256]" = torch.ops.aten.add.Tensor(to_99, mul_29);  to_99 = mul_29 = None
    add_26: "f32[1, 1, 256]" = torch.ops.aten.add.Tensor(getitem_4, 1);  getitem_4 = None
    
     # File: /Users/hellorahul/Projects/keras/keras/src/backend/torch/layer.py:41 in forward, code: return Operation.__call__(self, *args, **kwargs)
    to_176: "f32[1, 16, 256]" = torch.ops.aten.to.dtype_layout(add_25, dtype = torch.float32, layout = torch.strided, device = device(type='cpu'));  add_25 = None
    to_177: "f32[1, 16, 256]" = torch.ops.aten.to.dtype(to_176, torch.float32);  to_176 = None
    _param_constant34: "f32[256]" = self._param_constant34
    to_178: "f32[256]" = torch.ops.aten.to.dtype_layout(_param_constant34, dtype = torch.float32, layout = torch.strided, device = device(type='cpu'));  _param_constant34 = None
    to_179: "f32[256]" = torch.ops.aten.to.dtype(to_178, torch.float32);  to_178 = None
    _param_constant35: "f32[256]" = self._param_constant35
    to_180: "f32[256]" = torch.ops.aten.to.dtype_layout(_param_constant35, dtype = torch.float32, layout = torch.strided, device = device(type='cpu'));  _param_constant35 = None
    to_181: "f32[256]" = torch.ops.aten.to.dtype(to_180, torch.float32);  to_180 = None
    layer_norm_2: "f32[1, 16, 256]" = torch.ops.aten.layer_norm.default(to_177, [256], to_179, to_181, 1e-06);  to_179 = to_181 = None
    
     # File: /Users/hellorahul/Projects/keras/keras/src/backend/torch/layer.py:41 in forward, code: return Operation.__call__(self, *args, **kwargs)
    mul_30: "f32[1, 16, 256]" = torch.ops.aten.mul.Tensor(add_26, layer_norm_2);  add_26 = layer_norm_2 = None
    add_27: "f32[1, 16, 256]" = torch.ops.aten.add.Tensor(mul_30, getitem_3);  mul_30 = getitem_3 = None
    
     # File: /Users/hellorahul/Projects/keras/keras/src/backend/torch/layer.py:41 in forward, code: return Operation.__call__(self, *args, **kwargs)
    to_182: "f32[1, 16, 256]" = torch.ops.aten.to.dtype_layout(add_27, dtype = torch.float32, layout = torch.strided, device = device(type='cpu'));  add_27 = None
    to_183: "f32[1, 16, 256]" = torch.ops.aten.to.dtype(to_182, torch.float32);  to_182 = None
    
     # File: /Users/hellorahul/Projects/keras/keras/src/backend/torch/layer.py:41 in forward, code: return Operation.__call__(self, *args, **kwargs)
    to_184: "f32[1, 16, 256]" = torch.ops.aten.to.dtype_layout(to_183, dtype = torch.float32, layout = torch.strided, device = device(type='cpu'));  to_183 = None
    _param_constant36: "f32[256, 512]" = self._param_constant36
    to_185: "f32[256, 512]" = torch.ops.aten.to.dtype_layout(_param_constant36, dtype = torch.float32, layout = torch.strided, device = device(type='cpu'));  _param_constant36 = None
    matmul_15: "f32[1, 16, 512]" = torch.ops.aten.matmul.default(to_184, to_185);  to_184 = to_185 = None
    to_186: "f32[1, 16, 512]" = torch.ops.aten.to.dtype_layout(matmul_15, dtype = torch.float32, layout = torch.strided, device = device(type='cpu'));  matmul_15 = None
    _param_constant37: "f32[512]" = self._param_constant37
    to_187: "f32[512]" = torch.ops.aten.to.dtype_layout(_param_constant37, dtype = torch.float32, layout = torch.strided, device = device(type='cpu'));  _param_constant37 = None
    add_28: "f32[1, 16, 512]" = torch.ops.aten.add.Tensor(to_186, to_187);  to_186 = to_187 = None
    to_188: "f32[1, 16, 512]" = torch.ops.aten.to.dtype_layout(add_28, dtype = torch.float32, layout = torch.strided, device = device(type='cpu'));  add_28 = None
    gelu: "f32[1, 16, 512]" = torch.ops.aten.gelu.default(to_188);  to_188 = None
    to_189: "f32[1, 16, 512]" = torch.ops.aten.to.dtype_layout(gelu, dtype = torch.float32, layout = torch.strided, device = device(type='cpu'));  gelu = None
    _param_constant38: "f32[512, 256]" = self._param_constant38
    to_190: "f32[512, 256]" = torch.ops.aten.to.dtype_layout(_param_constant38, dtype = torch.float32, layout = torch.strided, device = device(type='cpu'));  _param_constant38 = None
    matmul_16: "f32[1, 16, 256]" = torch.ops.aten.matmul.default(to_189, to_190);  to_189 = to_190 = None
    to_191: "f32[1, 16, 256]" = torch.ops.aten.to.dtype_layout(matmul_16, dtype = torch.float32, layout = torch.strided, device = device(type='cpu'));  matmul_16 = None
    _param_constant39: "f32[256]" = self._param_constant39
    to_192: "f32[256]" = torch.ops.aten.to.dtype_layout(_param_constant39, dtype = torch.float32, layout = torch.strided, device = device(type='cpu'));  _param_constant39 = None
    add_29: "f32[1, 16, 256]" = torch.ops.aten.add.Tensor(to_191, to_192);  to_191 = to_192 = None
    
     # File: /Users/hellorahul/Projects/keras/keras/src/backend/torch/layer.py:41 in forward, code: return Operation.__call__(self, *args, **kwargs)
    mul_31: "f32[1, 16, 256]" = torch.ops.aten.mul.Tensor(getitem_5, add_29);  getitem_5 = add_29 = None
    add_30: "f32[1, 16, 256]" = torch.ops.aten.add.Tensor(to_177, mul_31);  to_177 = mul_31 = None
    
     # File: /Users/hellorahul/Projects/keras/keras/src/backend/torch/layer.py:41 in forward, code: return Operation.__call__(self, *args, **kwargs)
    to_193: "f32[1, 16, 256]" = torch.ops.aten.to.dtype_layout(slice_1, dtype = torch.float32, layout = torch.strided, device = device(type='cpu'));  slice_1 = None
    _param_constant40: "f32[256, 256]" = self._param_constant40
    to_194: "f32[256, 256]" = torch.ops.aten.to.dtype_layout(_param_constant40, dtype = torch.float32, layout = torch.strided, device = device(type='cpu'));  _param_constant40 = None
    matmul_17: "f32[1, 16, 256]" = torch.ops.aten.matmul.default(to_193, to_194);  to_193 = to_194 = None
    to_195: "f32[1, 16, 256]" = torch.ops.aten.to.dtype_layout(matmul_17, dtype = torch.float32, layout = torch.strided, device = device(type='cpu'));  matmul_17 = None
    _param_constant41: "f32[256]" = self._param_constant41
    to_196: "f32[256]" = torch.ops.aten.to.dtype_layout(_param_constant41, dtype = torch.float32, layout = torch.strided, device = device(type='cpu'));  _param_constant41 = None
    add_31: "f32[1, 16, 256]" = torch.ops.aten.add.Tensor(to_195, to_196);  to_195 = to_196 = None
    
     # File: /Users/hellorahul/Projects/keras/keras/src/backend/torch/layer.py:41 in forward, code: return Operation.__call__(self, *args, **kwargs)
    mul_32: "f32[1, 16, 256]" = torch.ops.aten.mul.Tensor(getitem_8, add_31);  getitem_8 = add_31 = None
    add_32: "f32[1, 16, 256]" = torch.ops.aten.add.Tensor(to_123, mul_32);  to_123 = mul_32 = None
    add_33: "f32[1, 1, 256]" = torch.ops.aten.add.Tensor(getitem_10, 1);  getitem_10 = None
    
     # File: /Users/hellorahul/Projects/keras/keras/src/backend/torch/layer.py:41 in forward, code: return Operation.__call__(self, *args, **kwargs)
    to_197: "f32[1, 16, 256]" = torch.ops.aten.to.dtype_layout(add_32, dtype = torch.float32, layout = torch.strided, device = device(type='cpu'));  add_32 = None
    to_198: "f32[1, 16, 256]" = torch.ops.aten.to.dtype(to_197, torch.float32);  to_197 = None
    _param_constant42: "f32[256]" = self._param_constant42
    to_199: "f32[256]" = torch.ops.aten.to.dtype_layout(_param_constant42, dtype = torch.float32, layout = torch.strided, device = device(type='cpu'));  _param_constant42 = None
    to_200: "f32[256]" = torch.ops.aten.to.dtype(to_199, torch.float32);  to_199 = None
    _param_constant43: "f32[256]" = self._param_constant43
    to_201: "f32[256]" = torch.ops.aten.to.dtype_layout(_param_constant43, dtype = torch.float32, layout = torch.strided, device = device(type='cpu'));  _param_constant43 = None
    to_202: "f32[256]" = torch.ops.aten.to.dtype(to_201, torch.float32);  to_201 = None
    layer_norm_3: "f32[1, 16, 256]" = torch.ops.aten.layer_norm.default(to_198, [256], to_200, to_202, 1e-06);  to_200 = to_202 = None
    
     # File: /Users/hellorahul/Projects/keras/keras/src/backend/torch/layer.py:41 in forward, code: return Operation.__call__(self, *args, **kwargs)
    mul_33: "f32[1, 16, 256]" = torch.ops.aten.mul.Tensor(add_33, layer_norm_3);  add_33 = layer_norm_3 = None
    add_34: "f32[1, 16, 256]" = torch.ops.aten.add.Tensor(mul_33, getitem_9);  mul_33 = getitem_9 = None
    
     # File: /Users/hellorahul/Projects/keras/keras/src/backend/torch/layer.py:41 in forward, code: return Operation.__call__(self, *args, **kwargs)
    to_203: "f32[1, 16, 256]" = torch.ops.aten.to.dtype_layout(add_34, dtype = torch.float32, layout = torch.strided, device = device(type='cpu'));  add_34 = None
    to_204: "f32[1, 16, 256]" = torch.ops.aten.to.dtype(to_203, torch.float32);  to_203 = None
    
     # File: /Users/hellorahul/Projects/keras/keras/src/backend/torch/layer.py:41 in forward, code: return Operation.__call__(self, *args, **kwargs)
    to_205: "f32[1, 16, 256]" = torch.ops.aten.to.dtype_layout(to_204, dtype = torch.float32, layout = torch.strided, device = device(type='cpu'));  to_204 = None
    _param_constant44: "f32[256, 512]" = self._param_constant44
    to_206: "f32[256, 512]" = torch.ops.aten.to.dtype_layout(_param_constant44, dtype = torch.float32, layout = torch.strided, device = device(type='cpu'));  _param_constant44 = None
    matmul_18: "f32[1, 16, 512]" = torch.ops.aten.matmul.default(to_205, to_206);  to_205 = to_206 = None
    to_207: "f32[1, 16, 512]" = torch.ops.aten.to.dtype_layout(matmul_18, dtype = torch.float32, layout = torch.strided, device = device(type='cpu'));  matmul_18 = None
    _param_constant45: "f32[512]" = self._param_constant45
    to_208: "f32[512]" = torch.ops.aten.to.dtype_layout(_param_constant45, dtype = torch.float32, layout = torch.strided, device = device(type='cpu'));  _param_constant45 = None
    add_35: "f32[1, 16, 512]" = torch.ops.aten.add.Tensor(to_207, to_208);  to_207 = to_208 = None
    to_209: "f32[1, 16, 512]" = torch.ops.aten.to.dtype_layout(add_35, dtype = torch.float32, layout = torch.strided, device = device(type='cpu'));  add_35 = None
    gelu_1: "f32[1, 16, 512]" = torch.ops.aten.gelu.default(to_209);  to_209 = None
    to_210: "f32[1, 16, 512]" = torch.ops.aten.to.dtype_layout(gelu_1, dtype = torch.float32, layout = torch.strided, device = device(type='cpu'));  gelu_1 = None
    _param_constant46: "f32[512, 256]" = self._param_constant46
    to_211: "f32[512, 256]" = torch.ops.aten.to.dtype_layout(_param_constant46, dtype = torch.float32, layout = torch.strided, device = device(type='cpu'));  _param_constant46 = None
    matmul_19: "f32[1, 16, 256]" = torch.ops.aten.matmul.default(to_210, to_211);  to_210 = to_211 = None
    to_212: "f32[1, 16, 256]" = torch.ops.aten.to.dtype_layout(matmul_19, dtype = torch.float32, layout = torch.strided, device = device(type='cpu'));  matmul_19 = None
    _param_constant47: "f32[256]" = self._param_constant47
    to_213: "f32[256]" = torch.ops.aten.to.dtype_layout(_param_constant47, dtype = torch.float32, layout = torch.strided, device = device(type='cpu'));  _param_constant47 = None
    add_36: "f32[1, 16, 256]" = torch.ops.aten.add.Tensor(to_212, to_213);  to_212 = to_213 = None
    
     # File: /Users/hellorahul/Projects/keras/keras/src/backend/torch/layer.py:41 in forward, code: return Operation.__call__(self, *args, **kwargs)
    mul_34: "f32[1, 16, 256]" = torch.ops.aten.mul.Tensor(getitem_11, add_36);  getitem_11 = add_36 = None
    add_37: "f32[1, 16, 256]" = torch.ops.aten.add.Tensor(to_198, mul_34);  to_198 = mul_34 = None
    
     # File: /Users/hellorahul/Projects/keras/keras/src/backend/torch/layer.py:41 in forward, code: return Operation.__call__(self, *args, **kwargs)
    to_214: "f32[1, 256]" = torch.ops.aten.to.dtype_layout(to_92, dtype = torch.float32, layout = torch.strided, device = device(type='cpu'));  to_92 = None
    silu_5: "f32[1, 256]" = torch.ops.aten.silu.default(to_214)
    to_215: "f32[1, 256]" = torch.ops.aten.to.dtype_layout(silu_5, dtype = torch.float32, layout = torch.strided, device = device(type='cpu'));  silu_5 = None
    _param_constant48: "f32[256, 1536]" = self._param_constant48
    to_216: "f32[256, 1536]" = torch.ops.aten.to.dtype_layout(_param_constant48, dtype = torch.float32, layout = torch.strided, device = device(type='cpu'));  _param_constant48 = None
    matmul_20: "f32[1, 1536]" = torch.ops.aten.matmul.default(to_215, to_216);  to_215 = to_216 = None
    to_217: "f32[1, 1536]" = torch.ops.aten.to.dtype_layout(matmul_20, dtype = torch.float32, layout = torch.strided, device = device(type='cpu'));  matmul_20 = None
    _param_constant49: "f32[1536]" = self._param_constant49
    to_218: "f32[1536]" = torch.ops.aten.to.dtype_layout(_param_constant49, dtype = torch.float32, layout = torch.strided, device = device(type='cpu'));  _param_constant49 = None
    add_38: "f32[1, 1536]" = torch.ops.aten.add.Tensor(to_217, to_218);  to_217 = to_218 = None
    
     # File: /Users/hellorahul/Projects/keras/keras/src/backend/torch/layer.py:41 in forward, code: return Operation.__call__(self, *args, **kwargs)
    unsqueeze_7: "f32[1, 1, 1536]" = torch.ops.aten.unsqueeze.default(add_38, 1);  add_38 = None
    to_219: "f32[1, 1, 1536]" = torch.ops.aten.to.dtype_layout(unsqueeze_7, dtype = torch.float32, layout = torch.strided, device = device(type='cpu'));  unsqueeze_7 = None
    split_4 = torch.ops.aten.split.Tensor(to_219, 256, -1);  to_219 = None
    getitem_18: "f32[1, 1, 256]" = split_4[0]
    getitem_19: "f32[1, 1, 256]" = split_4[1]
    getitem_20: "f32[1, 1, 256]" = split_4[2]
    getitem_21: "f32[1, 1, 256]" = split_4[3]
    getitem_22: "f32[1, 1, 256]" = split_4[4]
    getitem_23: "f32[1, 1, 256]" = split_4[5];  split_4 = None
    
     # File: /Users/hellorahul/Projects/keras/keras/src/backend/torch/layer.py:41 in forward, code: return Operation.__call__(self, *args, **kwargs)
    to_220: "f32[1, 256]" = torch.ops.aten.to.dtype_layout(to_214, dtype = torch.float32, layout = torch.strided, device = device(type='cpu'));  to_214 = None
    silu_6: "f32[1, 256]" = torch.ops.aten.silu.default(to_220)
    to_221: "f32[1, 256]" = torch.ops.aten.to.dtype_layout(silu_6, dtype = torch.float32, layout = torch.strided, device = device(type='cpu'));  silu_6 = None
    _param_constant50: "f32[256, 1536]" = self._param_constant50
    to_222: "f32[256, 1536]" = torch.ops.aten.to.dtype_layout(_param_constant50, dtype = torch.float32, layout = torch.strided, device = device(type='cpu'));  _param_constant50 = None
    matmul_21: "f32[1, 1536]" = torch.ops.aten.matmul.default(to_221, to_222);  to_221 = to_222 = None
    to_223: "f32[1, 1536]" = torch.ops.aten.to.dtype_layout(matmul_21, dtype = torch.float32, layout = torch.strided, device = device(type='cpu'));  matmul_21 = None
    _param_constant51: "f32[1536]" = self._param_constant51
    to_224: "f32[1536]" = torch.ops.aten.to.dtype_layout(_param_constant51, dtype = torch.float32, layout = torch.strided, device = device(type='cpu'));  _param_constant51 = None
    add_39: "f32[1, 1536]" = torch.ops.aten.add.Tensor(to_223, to_224);  to_223 = to_224 = None
    
     # File: /Users/hellorahul/Projects/keras/keras/src/backend/torch/layer.py:41 in forward, code: return Operation.__call__(self, *args, **kwargs)
    unsqueeze_8: "f32[1, 1, 1536]" = torch.ops.aten.unsqueeze.default(add_39, 1);  add_39 = None
    to_225: "f32[1, 1, 1536]" = torch.ops.aten.to.dtype_layout(unsqueeze_8, dtype = torch.float32, layout = torch.strided, device = device(type='cpu'));  unsqueeze_8 = None
    split_5 = torch.ops.aten.split.Tensor(to_225, 256, -1);  to_225 = None
    getitem_24: "f32[1, 1, 256]" = split_5[0]
    getitem_25: "f32[1, 1, 256]" = split_5[1]
    getitem_26: "f32[1, 1, 256]" = split_5[2]
    getitem_27: "f32[1, 1, 256]" = split_5[3]
    getitem_28: "f32[1, 1, 256]" = split_5[4]
    getitem_29: "f32[1, 1, 256]" = split_5[5];  split_5 = None
    to_226: "f32[1, 16, 256]" = torch.ops.aten.to.dtype_layout(add_30, dtype = torch.float32, layout = torch.strided, device = device(type='cpu'));  add_30 = None
    to_227: "f32[1, 16, 256]" = torch.ops.aten.to.dtype(to_226, torch.float32);  to_226 = None
    _param_constant52: "f32[256]" = self._param_constant52
    to_228: "f32[256]" = torch.ops.aten.to.dtype_layout(_param_constant52, dtype = torch.float32, layout = torch.strided, device = device(type='cpu'));  _param_constant52 = None
    to_229: "f32[256]" = torch.ops.aten.to.dtype(to_228, torch.float32);  to_228 = None
    _param_constant53: "f32[256]" = self._param_constant53
    to_230: "f32[256]" = torch.ops.aten.to.dtype_layout(_param_constant53, dtype = torch.float32, layout = torch.strided, device = device(type='cpu'));  _param_constant53 = None
    to_231: "f32[256]" = torch.ops.aten.to.dtype(to_230, torch.float32);  to_230 = None
    layer_norm_4: "f32[1, 16, 256]" = torch.ops.aten.layer_norm.default(to_227, [256], to_229, to_231, 1e-06);  to_229 = to_231 = None
    
     # File: /Users/hellorahul/Projects/keras/keras/src/backend/torch/layer.py:41 in forward, code: return Operation.__call__(self, *args, **kwargs)
    add_40: "f32[1, 1, 256]" = torch.ops.aten.add.Tensor(getitem_19, 1);  getitem_19 = None
    mul_35: "f32[1, 16, 256]" = torch.ops.aten.mul.Tensor(add_40, layer_norm_4);  add_40 = layer_norm_4 = None
    add_41: "f32[1, 16, 256]" = torch.ops.aten.add.Tensor(mul_35, getitem_18);  mul_35 = getitem_18 = None
    
     # File: /Users/hellorahul/Projects/keras/keras/src/backend/torch/layer.py:41 in forward, code: return Operation.__call__(self, *args, **kwargs)
    to_232: "f32[1, 16, 256]" = torch.ops.aten.to.dtype_layout(add_41, dtype = torch.float32, layout = torch.strided, device = device(type='cpu'));  add_41 = None
    _param_constant54: "f32[256, 768]" = self._param_constant54
    to_233: "f32[256, 768]" = torch.ops.aten.to.dtype_layout(_param_constant54, dtype = torch.float32, layout = torch.strided, device = device(type='cpu'));  _param_constant54 = None
    matmul_22: "f32[1, 16, 768]" = torch.ops.aten.matmul.default(to_232, to_233);  to_232 = to_233 = None
    to_234: "f32[1, 16, 768]" = torch.ops.aten.to.dtype_layout(matmul_22, dtype = torch.float32, layout = torch.strided, device = device(type='cpu'));  matmul_22 = None
    _param_constant55: "f32[768]" = self._param_constant55
    to_235: "f32[768]" = torch.ops.aten.to.dtype_layout(_param_constant55, dtype = torch.float32, layout = torch.strided, device = device(type='cpu'));  _param_constant55 = None
    add_42: "f32[1, 16, 768]" = torch.ops.aten.add.Tensor(to_234, to_235);  to_234 = to_235 = None
    
     # File: /Users/hellorahul/Projects/keras/keras/src/backend/torch/layer.py:41 in forward, code: return Operation.__call__(self, *args, **kwargs)
    to_236: "f32[1, 16, 768]" = torch.ops.aten.to.dtype_layout(add_42, dtype = torch.float32, layout = torch.strided, device = device(type='cpu'));  add_42 = None
    reshape_7: "f32[1, 16, 3, 4, 64]" = torch.ops.aten.reshape.default(to_236, [1, 16, 3, 4, 64]);  to_236 = None
    to_237: "f32[1, 16, 3, 4, 64]" = torch.ops.aten.to.dtype_layout(reshape_7, dtype = torch.float32, layout = torch.strided, device = device(type='cpu'));  reshape_7 = None
    permute_4: "f32[3, 1, 4, 16, 64]" = torch.ops.aten.permute.default(to_237, [2, 0, 3, 1, 4]);  to_237 = None
    to_238: "f32[3, 1, 4, 16, 64]" = torch.ops.aten.to.dtype_layout(permute_4, dtype = torch.float32, layout = torch.strided, device = device(type='cpu'));  permute_4 = None
    split_6 = torch.ops.aten.split.Tensor(to_238, 1);  to_238 = None
    getitem_30: "f32[1, 1, 4, 16, 64]" = split_6[0]
    getitem_31: "f32[1, 1, 4, 16, 64]" = split_6[1]
    getitem_32: "f32[1, 1, 4, 16, 64]" = split_6[2];  split_6 = None
    to_239: "f32[1, 1, 4, 16, 64]" = torch.ops.aten.to.dtype_layout(getitem_30, dtype = torch.float32, layout = torch.strided, device = device(type='cpu'));  getitem_30 = None
    squeeze_6: "f32[1, 4, 16, 64]" = torch.ops.aten.squeeze.dim(to_239, 0);  to_239 = None
    to_240: "f32[1, 1, 4, 16, 64]" = torch.ops.aten.to.dtype_layout(getitem_31, dtype = torch.float32, layout = torch.strided, device = device(type='cpu'));  getitem_31 = None
    squeeze_7: "f32[1, 4, 16, 64]" = torch.ops.aten.squeeze.dim(to_240, 0);  to_240 = None
    to_241: "f32[1, 1, 4, 16, 64]" = torch.ops.aten.to.dtype_layout(getitem_32, dtype = torch.float32, layout = torch.strided, device = device(type='cpu'));  getitem_32 = None
    squeeze_8: "f32[1, 4, 16, 64]" = torch.ops.aten.squeeze.dim(to_241, 0);  to_241 = None
    
     # File: /Users/hellorahul/Projects/keras/keras/src/backend/torch/layer.py:41 in forward, code: return Operation.__call__(self, *args, **kwargs)
    to_242: "f32[1, 4, 16, 64]" = torch.ops.aten.to.dtype_layout(squeeze_6, dtype = torch.float32, layout = torch.strided, device = device(type='cpu'));  squeeze_6 = None
    square_4: "f32[1, 4, 16, 64]" = torch.ops.aten.square.default(to_242)
    to_243: "f32[1, 4, 16, 64]" = torch.ops.aten.to.dtype_layout(square_4, dtype = torch.float32, layout = torch.strided, device = device(type='cpu'));  square_4 = None
    mean_4: "f32[1, 4, 16, 1]" = torch.ops.aten.mean.dim(to_243, [-1], True);  to_243 = None
    add_43: "f32[1, 4, 16, 1]" = torch.ops.aten.add.Tensor(mean_4, 1e-06);  mean_4 = None
    to_244: "f32[1, 4, 16, 1]" = torch.ops.aten.to.dtype_layout(add_43, dtype = torch.float32, layout = torch.strided, device = device(type='cpu'));  add_43 = None
    to_245: "f32[1, 4, 16, 1]" = torch.ops.aten.to.dtype_layout(to_244, dtype = torch.float32, layout = torch.strided, device = device(type='cpu'));  to_244 = None
    rsqrt_4: "f32[1, 4, 16, 1]" = torch.ops.aten.rsqrt.default(to_245);  to_245 = None
    mul_36: "f32[1, 4, 16, 64]" = torch.ops.aten.mul.Tensor(to_242, rsqrt_4);  to_242 = rsqrt_4 = None
    _param_constant56: "f32[64]" = self._param_constant56
    mul_37: "f32[1, 4, 16, 64]" = torch.ops.aten.mul.Tensor(mul_36, _param_constant56);  mul_36 = _param_constant56 = None
    to_246: "f32[1, 4, 16, 64]" = torch.ops.aten.to.dtype_layout(squeeze_7, dtype = torch.float32, layout = torch.strided, device = device(type='cpu'));  squeeze_7 = None
    square_5: "f32[1, 4, 16, 64]" = torch.ops.aten.square.default(to_246)
    to_247: "f32[1, 4, 16, 64]" = torch.ops.aten.to.dtype_layout(square_5, dtype = torch.float32, layout = torch.strided, device = device(type='cpu'));  square_5 = None
    mean_5: "f32[1, 4, 16, 1]" = torch.ops.aten.mean.dim(to_247, [-1], True);  to_247 = None
    add_44: "f32[1, 4, 16, 1]" = torch.ops.aten.add.Tensor(mean_5, 1e-06);  mean_5 = None
    to_248: "f32[1, 4, 16, 1]" = torch.ops.aten.to.dtype_layout(add_44, dtype = torch.float32, layout = torch.strided, device = device(type='cpu'));  add_44 = None
    to_249: "f32[1, 4, 16, 1]" = torch.ops.aten.to.dtype_layout(to_248, dtype = torch.float32, layout = torch.strided, device = device(type='cpu'));  to_248 = None
    rsqrt_5: "f32[1, 4, 16, 1]" = torch.ops.aten.rsqrt.default(to_249);  to_249 = None
    mul_38: "f32[1, 4, 16, 64]" = torch.ops.aten.mul.Tensor(to_246, rsqrt_5);  to_246 = rsqrt_5 = None
    _param_constant57: "f32[64]" = self._param_constant57
    mul_39: "f32[1, 4, 16, 64]" = torch.ops.aten.mul.Tensor(mul_38, _param_constant57);  mul_38 = _param_constant57 = None
    
     # File: /Users/hellorahul/Projects/keras/keras/src/backend/torch/layer.py:41 in forward, code: return Operation.__call__(self, *args, **kwargs)
    to_250: "f32[1, 16, 256]" = torch.ops.aten.to.dtype_layout(add_37, dtype = torch.float32, layout = torch.strided, device = device(type='cpu'));  add_37 = None
    to_251: "f32[1, 16, 256]" = torch.ops.aten.to.dtype(to_250, torch.float32);  to_250 = None
    _param_constant58: "f32[256]" = self._param_constant58
    to_252: "f32[256]" = torch.ops.aten.to.dtype_layout(_param_constant58, dtype = torch.float32, layout = torch.strided, device = device(type='cpu'));  _param_constant58 = None
    to_253: "f32[256]" = torch.ops.aten.to.dtype(to_252, torch.float32);  to_252 = None
    _param_constant59: "f32[256]" = self._param_constant59
    to_254: "f32[256]" = torch.ops.aten.to.dtype_layout(_param_constant59, dtype = torch.float32, layout = torch.strided, device = device(type='cpu'));  _param_constant59 = None
    to_255: "f32[256]" = torch.ops.aten.to.dtype(to_254, torch.float32);  to_254 = None
    layer_norm_5: "f32[1, 16, 256]" = torch.ops.aten.layer_norm.default(to_251, [256], to_253, to_255, 1e-06);  to_253 = to_255 = None
    
     # File: /Users/hellorahul/Projects/keras/keras/src/backend/torch/layer.py:41 in forward, code: return Operation.__call__(self, *args, **kwargs)
    add_45: "f32[1, 1, 256]" = torch.ops.aten.add.Tensor(getitem_25, 1);  getitem_25 = None
    mul_40: "f32[1, 16, 256]" = torch.ops.aten.mul.Tensor(add_45, layer_norm_5);  add_45 = layer_norm_5 = None
    add_46: "f32[1, 16, 256]" = torch.ops.aten.add.Tensor(mul_40, getitem_24);  mul_40 = getitem_24 = None
    
     # File: /Users/hellorahul/Projects/keras/keras/src/backend/torch/layer.py:41 in forward, code: return Operation.__call__(self, *args, **kwargs)
    to_256: "f32[1, 16, 256]" = torch.ops.aten.to.dtype_layout(add_46, dtype = torch.float32, layout = torch.strided, device = device(type='cpu'));  add_46 = None
    _param_constant60: "f32[256, 768]" = self._param_constant60
    to_257: "f32[256, 768]" = torch.ops.aten.to.dtype_layout(_param_constant60, dtype = torch.float32, layout = torch.strided, device = device(type='cpu'));  _param_constant60 = None
    matmul_23: "f32[1, 16, 768]" = torch.ops.aten.matmul.default(to_256, to_257);  to_256 = to_257 = None
    to_258: "f32[1, 16, 768]" = torch.ops.aten.to.dtype_layout(matmul_23, dtype = torch.float32, layout = torch.strided, device = device(type='cpu'));  matmul_23 = None
    _param_constant61: "f32[768]" = self._param_constant61
    to_259: "f32[768]" = torch.ops.aten.to.dtype_layout(_param_constant61, dtype = torch.float32, layout = torch.strided, device = device(type='cpu'));  _param_constant61 = None
    add_47: "f32[1, 16, 768]" = torch.ops.aten.add.Tensor(to_258, to_259);  to_258 = to_259 = None
    
     # File: /Users/hellorahul/Projects/keras/keras/src/backend/torch/layer.py:41 in forward, code: return Operation.__call__(self, *args, **kwargs)
    to_260: "f32[1, 16, 768]" = torch.ops.aten.to.dtype_layout(add_47, dtype = torch.float32, layout = torch.strided, device = device(type='cpu'));  add_47 = None
    reshape_8: "f32[1, 16, 3, 4, 64]" = torch.ops.aten.reshape.default(to_260, [1, 16, 3, 4, 64]);  to_260 = None
    to_261: "f32[1, 16, 3, 4, 64]" = torch.ops.aten.to.dtype_layout(reshape_8, dtype = torch.float32, layout = torch.strided, device = device(type='cpu'));  reshape_8 = None
    permute_5: "f32[3, 1, 4, 16, 64]" = torch.ops.aten.permute.default(to_261, [2, 0, 3, 1, 4]);  to_261 = None
    to_262: "f32[3, 1, 4, 16, 64]" = torch.ops.aten.to.dtype_layout(permute_5, dtype = torch.float32, layout = torch.strided, device = device(type='cpu'));  permute_5 = None
    split_7 = torch.ops.aten.split.Tensor(to_262, 1);  to_262 = None
    getitem_33: "f32[1, 1, 4, 16, 64]" = split_7[0]
    getitem_34: "f32[1, 1, 4, 16, 64]" = split_7[1]
    getitem_35: "f32[1, 1, 4, 16, 64]" = split_7[2];  split_7 = None
    to_263: "f32[1, 1, 4, 16, 64]" = torch.ops.aten.to.dtype_layout(getitem_33, dtype = torch.float32, layout = torch.strided, device = device(type='cpu'));  getitem_33 = None
    squeeze_9: "f32[1, 4, 16, 64]" = torch.ops.aten.squeeze.dim(to_263, 0);  to_263 = None
    to_264: "f32[1, 1, 4, 16, 64]" = torch.ops.aten.to.dtype_layout(getitem_34, dtype = torch.float32, layout = torch.strided, device = device(type='cpu'));  getitem_34 = None
    squeeze_10: "f32[1, 4, 16, 64]" = torch.ops.aten.squeeze.dim(to_264, 0);  to_264 = None
    to_265: "f32[1, 1, 4, 16, 64]" = torch.ops.aten.to.dtype_layout(getitem_35, dtype = torch.float32, layout = torch.strided, device = device(type='cpu'));  getitem_35 = None
    squeeze_11: "f32[1, 4, 16, 64]" = torch.ops.aten.squeeze.dim(to_265, 0);  to_265 = None
    
     # File: /Users/hellorahul/Projects/keras/keras/src/backend/torch/layer.py:41 in forward, code: return Operation.__call__(self, *args, **kwargs)
    to_266: "f32[1, 4, 16, 64]" = torch.ops.aten.to.dtype_layout(squeeze_9, dtype = torch.float32, layout = torch.strided, device = device(type='cpu'));  squeeze_9 = None
    square_6: "f32[1, 4, 16, 64]" = torch.ops.aten.square.default(to_266)
    to_267: "f32[1, 4, 16, 64]" = torch.ops.aten.to.dtype_layout(square_6, dtype = torch.float32, layout = torch.strided, device = device(type='cpu'));  square_6 = None
    mean_6: "f32[1, 4, 16, 1]" = torch.ops.aten.mean.dim(to_267, [-1], True);  to_267 = None
    add_48: "f32[1, 4, 16, 1]" = torch.ops.aten.add.Tensor(mean_6, 1e-06);  mean_6 = None
    to_268: "f32[1, 4, 16, 1]" = torch.ops.aten.to.dtype_layout(add_48, dtype = torch.float32, layout = torch.strided, device = device(type='cpu'));  add_48 = None
…
    to_218: "f32[16]" = torch.ops.aten.to.dtype_layout(_param_constant101, dtype = torch.float32, layout = torch.strided, device = device(type='cpu'));  _param_constant101 = None
    to_219: "f32[16]" = torch.ops.aten.to.dtype(to_218, torch.float32);  to_218 = None
    layer_norm: "f32[1, 16, 16]" = torch.ops.aten.layer_norm.default(to_215, [16], to_217, to_219);  to_215 = to_217 = to_219 = None
    to_220: "f32[1, 16, 16]" = torch.ops.aten.to.dtype_layout(layer_norm, dtype = torch.float32, layout = torch.strided, device = device(type='cpu'));  layer_norm = None
    _param_constant102: "f32[16, 32]" = self._param_constant102
    to_221: "f32[16, 32]" = torch.ops.aten.to.dtype_layout(_param_constant102, dtype = torch.float32, layout = torch.strided, device = device(type='cpu'));  _param_constant102 = None
    matmul_2: "f32[1, 16, 32]" = torch.ops.aten.matmul.default(to_220, to_221);  to_221 = None
    to_222: "f32[1, 16, 32]" = torch.ops.aten.to.dtype_layout(matmul_2, dtype = torch.float32, layout = torch.strided, device = device(type='cpu'));  matmul_2 = None
    _param_constant103: "f32[32]" = self._param_constant103
    to_223: "f32[32]" = torch.ops.aten.to.dtype_layout(_param_constant103, dtype = torch.float32, layout = torch.strided, device = device(type='cpu'));  _param_constant103 = None
    add_31: "f32[1, 16, 32]" = torch.ops.aten.add.Tensor(to_222, to_223);  to_222 = to_223 = None
    to_224: "f32[1, 16, 32]" = torch.ops.aten.to.dtype_layout(add_31, dtype = torch.float32, layout = torch.strided, device = device(type='cpu'));  add_31 = None
    gelu: "f32[1, 16, 32]" = torch.ops.aten.gelu.default(to_224);  to_224 = None
    to_225: "f32[1, 16, 32]" = torch.ops.aten.to.dtype_layout(gelu, dtype = torch.float32, layout = torch.strided, device = device(type='cpu'));  gelu = None
    _param_constant104: "f32[32, 16]" = self._param_constant104
    to_226: "f32[32, 16]" = torch.ops.aten.to.dtype_layout(_param_constant104, dtype = torch.float32, layout = torch.strided, device = device(type='cpu'));  _param_constant104 = None
    matmul_3: "f32[1, 16, 16]" = torch.ops.aten.matmul.default(to_225, to_226);  to_225 = to_226 = None
    to_227: "f32[1, 16, 16]" = torch.ops.aten.to.dtype_layout(matmul_3, dtype = torch.float32, layout = torch.strided, device = device(type='cpu'));  matmul_3 = None
    _param_constant105: "f32[16]" = self._param_constant105
    to_228: "f32[16]" = torch.ops.aten.to.dtype_layout(_param_constant105, dtype = torch.float32, layout = torch.strided, device = device(type='cpu'));  _param_constant105 = None
    add_32: "f32[1, 16, 16]" = torch.ops.aten.add.Tensor(to_227, to_228);  to_227 = to_228 = None
    
     # File: /Users/hellorahul/Projects/keras/keras/src/backend/torch/layer.py:41 in forward, code: return Operation.__call__(self, *args, **kwargs)
    add_33: "f32[1, 16, 16]" = torch.ops.aten.add.Tensor(to_220, add_32);  to_220 = add_32 = None
    
     # File: /Users/hellorahul/Projects/keras/keras/src/backend/torch/layer.py:41 in forward, code: return Operation.__call__(self, *args, **kwargs)
    to_229: "f32[1, 16, 16]" = torch.ops.aten.to.dtype_layout(add_33, dtype = torch.float32, layout = torch.strided, device = device(type='cpu'));  add_33 = None
    to_230: "f32[1, 16, 16]" = torch.ops.aten.to.dtype(to_229, torch.float32);  to_229 = None
    _param_constant106: "f32[16]" = self._param_constant106
    to_231: "f32[16]" = torch.ops.aten.to.dtype_layout(_param_constant106, dtype = torch.float32, layout = torch.strided, device = device(type='cpu'));  _param_constant106 = None
    to_232: "f32[16]" = torch.ops.aten.to.dtype(to_231, torch.float32);  to_231 = None
    _param_constant107: "f32[16]" = self._param_constant107
    to_233: "f32[16]" = torch.ops.aten.to.dtype_layout(_param_constant107, dtype = torch.float32, layout = torch.strided, device = device(type='cpu'));  _param_constant107 = None
    to_234: "f32[16]" = torch.ops.aten.to.dtype(to_233, torch.float32);  to_233 = None
    layer_norm_1: "f32[1, 16, 16]" = torch.ops.aten.layer_norm.default(to_230, [16], to_232, to_234);  to_230 = to_232 = to_234 = None
    
     # File: /Users/hellorahul/Projects/keras/keras/src/backend/torch/layer.py:41 in forward, code: return Operation.__call__(self, *args, **kwargs)
    to_235: "f32[1, 16, 16]" = torch.ops.aten.to.dtype_layout(layer_norm_1, dtype = torch.float32, layout = torch.strided, device = device(type='cpu'));  layer_norm_1 = None
    reshape_62: "f32[1, 4, 4, 16]" = torch.ops.aten.reshape.default(to_235, [1, 4, 4, 16]);  to_235 = None
    
     # File: /Users/hellorahul/Projects/keras/keras/src/backend/torch/layer.py:41 in forward, code: return Operation.__call__(self, *args, **kwargs)
    to_236: "f32[1, 4, 4, 16]" = torch.ops.aten.to.dtype_layout(reshape_62, dtype = torch.float32, layout = torch.strided, device = device(type='cpu'));  reshape_62 = None
    pad_14: "f32[1, 4, 4, 16]" = torch.ops.aten.pad.default(to_236, [0, 0]);  to_236 = None
    to_237: "f32[1, 4, 4, 16]" = torch.ops.aten.to.dtype_layout(pad_14, dtype = torch.float32, layout = torch.strided, device = device(type='cpu'));  pad_14 = None
    _param_constant108: "f32[1, 1, 16, 16]" = self._param_constant108
    to_238: "f32[1, 1, 16, 16]" = torch.ops.aten.to.dtype_layout(_param_constant108, dtype = torch.float32, layout = torch.strided, device = device(type='cpu'));  _param_constant108 = None
    permute_44: "f32[1, 16, 4, 4]" = torch.ops.aten.permute.default(to_237, [0, 3, 1, 2]);  to_237 = None
    contiguous_10: "f32[1, 16, 4, 4]" = torch.ops.aten.contiguous.default(permute_44);  permute_44 = None
    permute_45: "f32[16, 16, 1, 1]" = torch.ops.aten.permute.default(to_238, [3, 2, 0, 1]);  to_238 = None
    conv2d_14: "f32[1, 16, 4, 4]" = torch.ops.aten.conv2d.default(contiguous_10, permute_45);  contiguous_10 = permute_45 = None
    permute_46: "f32[1, 4, 4, 16]" = torch.ops.aten.permute.default(conv2d_14, [0, 2, 3, 1]);  conv2d_14 = None
    to_239: "f32[1, 4, 4, 16]" = torch.ops.aten.to.dtype_layout(permute_46, dtype = torch.float32, layout = torch.strided, device = device(type='cpu'));  permute_46 = None
    _param_constant109: "f32[16]" = self._param_constant109
    to_240: "f32[16]" = torch.ops.aten.to.dtype_layout(_param_constant109, dtype = torch.float32, layout = torch.strided, device = device(type='cpu'));  _param_constant109 = None
    _param_constant110: "f32[16]" = self._param_constant110
    to_241: "f32[16]" = torch.ops.aten.to.dtype_layout(_param_constant110, dtype = torch.float32, layout = torch.strided, device = device(type='cpu'));  _param_constant110 = None
    reshape_63: "f32[1, 1, 1, 16]" = torch.ops.aten.reshape.default(to_240, [1, 1, 1, 16]);  to_240 = None
    reshape_64: "f32[1, 1, 1, 16]" = torch.ops.aten.reshape.default(to_241, [1, 1, 1, 16]);  to_241 = None
    _param_constant111: "f32[16]" = self._param_constant111
    to_242: "f32[16]" = torch.ops.aten.to.dtype_layout(_param_constant111, dtype = torch.float32, layout = torch.strided, device = device(type='cpu'));  _param_constant111 = None
    reshape_65: "f32[1, 1, 1, 16]" = torch.ops.aten.reshape.default(to_242, [1, 1, 1, 16]);  to_242 = None
    _param_constant112: "f32[16]" = self._param_constant112
    to_243: "f32[16]" = torch.ops.aten.to.dtype_layout(_param_constant112, dtype = torch.float32, layout = torch.strided, device = device(type='cpu'));  _param_constant112 = None
    reshape_66: "f32[1, 1, 1, 16]" = torch.ops.aten.reshape.default(to_243, [1, 1, 1, 16]);  to_243 = None
    subtract_14: "f32[1, 4, 4, 16]" = torch.ops.aten.subtract.Tensor(to_239, reshape_63);  to_239 = reshape_63 = None
    add_34: "f32[1, 1, 1, 16]" = torch.ops.aten.add.Tensor(reshape_64, 1e-05);  reshape_64 = None
    rsqrt__14: "f32[1, 1, 1, 16]" = torch.ops.aten.rsqrt_.default(add_34);  add_34 = None
    mul_16: "f32[1, 1, 1, 16]" = torch.ops.aten.mul.Tensor(rsqrt__14, reshape_66);  rsqrt__14 = reshape_66 = None
    mul__14: "f32[1, 4, 4, 16]" = torch.ops.aten.mul_.Tensor(subtract_14, mul_16);  subtract_14 = mul_16 = None
    add__14: "f32[1, 4, 4, 16]" = torch.ops.aten.add_.Tensor(mul__14, reshape_65);  mul__14 = reshape_65 = None
    
     # File: /Users/hellorahul/Projects/keras/keras/src/backend/torch/layer.py:41 in forward, code: return Operation.__call__(self, *args, **kwargs)
    to_244: "f32[1, 4, 4, 16]" = torch.ops.aten.to.dtype_layout(add__14, dtype = torch.float32, layout = torch.strided, device = device(type='cpu'));  add__14 = None
    unsqueeze_1: "f32[1, 4, 1, 4, 16]" = torch.ops.aten.unsqueeze.default(to_244, 2);  to_244 = None
    expand: "f32[1, 4, 2, 4, 16]" = torch.ops.aten.expand.default(unsqueeze_1, [-1, -1, 2, -1, -1]);  unsqueeze_1 = None
    reshape_67: "f32[1, 8, 4, 16]" = torch.ops.aten.reshape.default(expand, [1, 8, 4, 16]);  expand = None
    to_245: "f32[1, 8, 4, 16]" = torch.ops.aten.to.dtype_layout(reshape_67, dtype = torch.float32, layout = torch.strided, device = device(type='cpu'));  reshape_67 = None
    unsqueeze_2: "f32[1, 8, 4, 1, 16]" = torch.ops.aten.unsqueeze.default(to_245, 3);  to_245 = None
    expand_1: "f32[1, 8, 4, 2, 16]" = torch.ops.aten.expand.default(unsqueeze_2, [-1, -1, -1, 2, -1]);  unsqueeze_2 = None
    reshape_68: "f32[1, 8, 8, 16]" = torch.ops.aten.reshape.default(expand_1, [1, 8, 8, 16]);  expand_1 = None
    
     # File: /Users/hellorahul/Projects/keras/keras/src/backend/torch/layer.py:41 in forward, code: return Operation.__call__(self, *args, **kwargs)
    to_246: "f32[1, 8, 8, 16]" = torch.ops.aten.to.dtype_layout(reshape_68, dtype = torch.float32, layout = torch.strided, device = device(type='cpu'));  reshape_68 = None
    to_247: "f32[1, 8, 8, 16]" = torch.ops.aten.to.dtype_layout(to_170, dtype = torch.float32, layout = torch.strided, device = device(type='cpu'));  to_170 = None
    cat_4: "f32[1, 8, 8, 32]" = torch.ops.aten.cat.default([to_246, to_247], -1);  to_246 = to_247 = None
    
     # File: /Users/hellorahul/Projects/keras/keras/src/backend/torch/layer.py:41 in forward, code: return Operation.__call__(self, *args, **kwargs)
    to_248: "f32[1, 8, 8, 32]" = torch.ops.aten.to.dtype_layout(cat_4, dtype = torch.float32, layout = torch.strided, device = device(type='cpu'));  cat_4 = None
    pad_15: "f32[1, 8, 8, 32]" = torch.ops.aten.pad.default(to_248, [0, 0]);  to_248 = None
    to_249: "f32[1, 8, 8, 32]" = torch.ops.aten.to.dtype_layout(pad_15, dtype = torch.float32, layout = torch.strided, device = device(type='cpu'));  pad_15 = None
    _param_constant113: "f32[1, 1, 32, 32]" = self._param_constant113
    to_250: "f32[1, 1, 32, 32]" = torch.ops.aten.to.dtype_layout(_param_constant113, dtype = torch.float32, layout = torch.strided, device = device(type='cpu'));  _param_constant113 = None
    permute_47: "f32[1, 32, 8, 8]" = torch.ops.aten.permute.default(to_249, [0, 3, 1, 2]);  to_249 = None
    contiguous_11: "f32[1, 32, 8, 8]" = torch.ops.aten.contiguous.default(permute_47);  permute_47 = None
    permute_48: "f32[32, 32, 1, 1]" = torch.ops.aten.permute.default(to_250, [3, 2, 0, 1]);  to_250 = None
    conv2d_15: "f32[1, 32, 8, 8]" = torch.ops.aten.conv2d.default(contiguous_11, permute_48);  contiguous_11 = permute_48 = None
    permute_49: "f32[1, 8, 8, 32]" = torch.ops.aten.permute.default(conv2d_15, [0, 2, 3, 1]);  conv2d_15 = None
    to_251: "f32[1, 8, 8, 32]" = torch.ops.aten.to.dtype_layout(permute_49, dtype = torch.float32, layout = torch.strided, device = device(type='cpu'));  permute_49 = None
    _param_constant114: "f32[32]" = self._param_constant114
    to_252: "f32[32]" = torch.ops.aten.to.dtype_layout(_param_constant114, dtype = torch.float32, layout = torch.strided, device = device(type='cpu'));  _param_constant114 = None
    _param_constant115: "f32[32]" = self._param_constant115
    to_253: "f32[32]" = torch.ops.aten.to.dtype_layout(_param_constant115, dtype = torch.float32, layout = torch.strided, device = device(type='cpu'));  _param_constant115 = None
    reshape_69: "f32[1, 1, 1, 32]" = torch.ops.aten.reshape.default(to_252, [1, 1, 1, 32]);  to_252 = None
    reshape_70: "f32[1, 1, 1, 32]" = torch.ops.aten.reshape.default(to_253, [1, 1, 1, 32]);  to_253 = None
    _param_constant116: "f32[32]" = self._param_constant116
    to_254: "f32[32]" = torch.ops.aten.to.dtype_layout(_param_constant116, dtype = torch.float32, layout = torch.strided, device = device(type='cpu'));  _param_constant116 = None
    reshape_71: "f32[1, 1, 1, 32]" = torch.ops.aten.reshape.default(to_254, [1, 1, 1, 32]);  to_254 = None
    _param_constant117: "f32[32]" = self._param_constant117
    to_255: "f32[32]" = torch.ops.aten.to.dtype_layout(_param_constant117, dtype = torch.float32, layout = torch.strided, device = device(type='cpu'));  _param_constant117 = None
    reshape_72: "f32[1, 1, 1, 32]" = torch.ops.aten.reshape.default(to_255, [1, 1, 1, 32]);  to_255 = None
    subtract_15: "f32[1, 8, 8, 32]" = torch.ops.aten.subtract.Tensor(to_251, reshape_69);  to_251 = reshape_69 = None
    add_35: "f32[1, 1, 1, 32]" = torch.ops.aten.add.Tensor(reshape_70, 1e-05);  reshape_70 = None
    rsqrt__15: "f32[1, 1, 1, 32]" = torch.ops.aten.rsqrt_.default(add_35);  add_35 = None
    mul_17: "f32[1, 1, 1, 32]" = torch.ops.aten.mul.Tensor(rsqrt__15, reshape_72);  rsqrt__15 = reshape_72 = None
    mul__15: "f32[1, 8, 8, 32]" = torch.ops.aten.mul_.Tensor(subtract_15, mul_17);  subtract_15 = mul_17 = None
    add__15: "f32[1, 8, 8, 32]" = torch.ops.aten.add_.Tensor(mul__15, reshape_71);  mul__15 = reshape_71 = None
    to_256: "f32[1, 8, 8, 32]" = torch.ops.aten.to.dtype_layout(add__15, dtype = torch.float32, layout = torch.strided, device = device(type='cpu'));  add__15 = None
    silu: "f32[1, 8, 8, 32]" = torch.ops.aten.silu.default(to_256);  to_256 = None
    
     # File: /Users/hellorahul/Projects/keras/keras/src/backend/torch/layer.py:41 in forward, code: return Operation.__call__(self, *args, **kwargs)
    to_257: "f32[1, 8, 8, 32]" = torch.ops.aten.to.dtype_layout(silu, dtype = torch.float32, layout = torch.strided, device = device(type='cpu'));  silu = None
    _tensor_constant0: "i32[2]" = self._tensor_constant0
    lift_fresh_copy: "i32[2]" = torch.ops.aten.lift_fresh_copy.default(_tensor_constant0);  _tensor_constant0 = None
    slice_1: "i32[1]" = torch.ops.aten.slice.Tensor(lift_fresh_copy, 0, 0, 1)
    slice_2: "i32[1]" = torch.ops.aten.slice.Tensor(lift_fresh_copy, 0, -1, 9223372036854775807)
    rsub: "i32[1]" = torch.ops.aten.rsub.Scalar(slice_2, 32);  slice_2 = None
    diff: "i32[1]" = torch.ops.aten.diff.default(lift_fresh_copy);  lift_fresh_copy = None
    concat: "i32[3]" = torch.ops.aten.concat.default([slice_1, diff, rsub]);  slice_1 = diff = rsub = None
    unbind = torch.ops.aten.unbind.int(concat);  concat = None
    getitem_2: "i32[]" = unbind[0]
    getitem_3: "i32[]" = unbind[1]
    getitem_4: "i32[]" = unbind[2];  unbind = None
    item: "Sym(u0)" = torch.ops.aten.item.default(getitem_2);  getitem_2 = None
    item_1: "Sym(u1)" = torch.ops.aten.item.default(getitem_3);  getitem_3 = None
    item_2: "Sym(u2)" = torch.ops.aten.item.default(getitem_4);  getitem_4 = None
    split_with_sizes = torch.ops.aten.split_with_sizes.default(to_257, [item, item_1, item_2], -1);  to_257 = item = item_1 = None
    getitem_5: "f32[1, 8, 8, u0]" = split_with_sizes[0];  getitem_5 = None
    getitem_6: "f32[1, 8, 8, u1]" = split_with_sizes[1];  getitem_6 = None
    getitem_7: "f32[1, 8, 8, u2]" = split_with_sizes[2];  split_with_sizes = None
    
     # File: /Users/hellorahul/Projects/keras/keras/src/backend/torch/layer.py:41 in forward, code: return Operation.__call__(self, *args, **kwargs)
    to_258: "f32[1, 8, 8, u2]" = torch.ops.aten.to.dtype_layout(getitem_7, dtype = torch.float32, layout = torch.strided, device = device(type='cpu'));  getitem_7 = None
    pad_16: "f32[1, 8, 8, u2]" = torch.ops.aten.pad.default(to_258, [0, 0]);  to_258 = None
    to_259: "f32[1, 8, 8, u2]" = torch.ops.aten.to.dtype_layout(pad_16, dtype = torch.float32, layout = torch.strided, device = device(type='cpu'));  pad_16 = None
    _param_constant118: "f32[1, 1, 16, 4]" = self._param_constant118
    to_260: "f32[1, 1, 16, 4]" = torch.ops.aten.to.dtype_layout(_param_constant118, dtype = torch.float32, layout = torch.strided, device = device(type='cpu'));  _param_constant118 = None
    permute_50: "f32[1, u2, 8, 8]" = torch.ops.aten.permute.default(to_259, [0, 3, 1, 2]);  to_259 = None
    sym_numel_default: "Sym(64*u2)" = torch.ops.aten.sym_numel.default(permute_50);  permute_50 = None
    eq: "Sym(Eq(64*u2, 0))" = sym_numel_default == 0;  sym_numel_default = eq = None
    eq_1: "Sym(Eq(u2, 1))" = item_2 == 1;  eq_1 = None
    sym_max: "Sym(Max(1, u2))" = torch.sym_max(item_2, 1)
    mul_18: "Sym(64*Max(1, u2))" = 64 * sym_max;  sym_max = mul_18 = None
    mul_19: "Sym(64*u2)" = 64 * item_2;  mul_19 = None
    permute_51: "f32[4, 16, 1, 1]" = torch.ops.aten.permute.default(to_260, [3, 2, 0, 1]);  to_260 = permute_51 = None
    mod: "Sym(Mod(u2, 16))" = item_2 % 16;  item_2 = None
    ne: "Sym(Ne(Mod(u2, 16), 0))" = mod != 0;  mod = ne = None
    
__________ SAM3PromptableConceptImageSegmenterTest.test_litert_export __________

self = <keras_hub.src.models.sam3.sam3_pc_image_segmenter_test.SAM3PromptableConceptImageSegmenterTest testMethod=test_litert_export>

    def test_litert_export(self):
>       self.run_litert_export_test(
            cls=SAM3PromptableConceptImageSegmenter,
            init_kwargs=self.init_kwargs,
            input_data=self.input_data,
            comparison_mode="statistical",
            output_thresholds={"*": {"max": 1e-2, "mean": 5e-3}},
        )

keras_hub/src/models/sam3/sam3_pc_image_segmenter_test.py:172: 
_ _ _ _ _ _ _ _ _ _ _ _ _ _ _ _ _ _ _ _ _ _ _ _ _ _ _ _ _ _ _ _ _ _ _ _ _ _ _ _ 
keras_hub/src/tests/test_case.py:657: in run_litert_export_test
    _ = model(input_data)
        ^^^^^^^^^^^^^^^^^
../keras/keras/src/utils/traceback_utils.py:113: in error_handler
    return fn(*args, **kwargs)
           ^^^^^^^^^^^^^^^^^^^
../keras/keras/src/layers/layer.py:959: in __call__
    outputs = super().__call__(*args, **kwargs)
              ^^^^^^^^^^^^^^^^^^^^^^^^^^^^^^^^^
../keras-hub-test-env/lib/python3.12/site-packages/torch/nn/modules/module.py:1775: in _wrapped_call_impl
    return self._call_impl(*args, **kwargs)
           ^^^^^^^^^^^^^^^^^^^^^^^^^^^^^^^^
../keras-hub-test-env/lib/python3.12/site-packages/torch/nn/modules/module.py:1786: in _call_impl
    return forward_call(*args, **kwargs)
           ^^^^^^^^^^^^^^^^^^^^^^^^^^^^^
../keras/keras/src/backend/torch/layer.py:41: in forward
    return Operation.__call__(self, *args, **kwargs)
           ^^^^^^^^^^^^^^^^^^^^^^^^^^^^^^^^^^^^^^^^^
../keras/keras/src/utils/traceback_utils.py:113: in error_handler
    return fn(*args, **kwargs)
           ^^^^^^^^^^^^^^^^^^^
../keras/keras/src/ops/operation.py:77: in __call__
    return self.call(*args, **kwargs)
           ^^^^^^^^^^^^^^^^^^^^^^^^^^
../keras/keras/src/models/functional.py:183: in call
    outputs = self._run_through_graph(
../keras/keras/src/ops/function.py:210: in _run_through_graph
    outputs = op(*args, **kwargs)
              ^^^^^^^^^^^^^^^^^^^
../keras/keras/src/models/functional.py:647: in call
    return operation(*args, **kwargs)
           ^^^^^^^^^^^^^^^^^^^^^^^^^^
../keras/keras/src/utils/traceback_utils.py:113: in error_handler
    return fn(*args, **kwargs)
           ^^^^^^^^^^^^^^^^^^^
../keras/keras/src/layers/layer.py:959: in __call__
    outputs = super().__call__(*args, **kwargs)
              ^^^^^^^^^^^^^^^^^^^^^^^^^^^^^^^^^
../keras-hub-test-env/lib/python3.12/site-packages/torch/nn/modules/module.py:1775: in _wrapped_call_impl
    return self._call_impl(*args, **kwargs)
           ^^^^^^^^^^^^^^^^^^^^^^^^^^^^^^^^
../keras-hub-test-env/lib/python3.12/site-packages/torch/nn/modules/module.py:1786: in _call_impl
    return forward_call(*args, **kwargs)
           ^^^^^^^^^^^^^^^^^^^^^^^^^^^^^
../keras/keras/src/backend/torch/layer.py:41: in forward
    return Operation.__call__(self, *args, **kwargs)
           ^^^^^^^^^^^^^^^^^^^^^^^^^^^^^^^^^^^^^^^^^
../keras/keras/src/utils/traceback_utils.py:113: in error_handler
    return fn(*args, **kwargs)
           ^^^^^^^^^^^^^^^^^^^
../keras/keras/src/ops/operation.py:77: in __call__
    return self.call(*args, **kwargs)
           ^^^^^^^^^^^^^^^^^^^^^^^^^^
../keras/keras/src/models/functional.py:183: in call
    outputs = self._run_through_graph(
../keras/keras/src/ops/function.py:210: in _run_through_graph
    outputs = op(*args, **kwargs)
              ^^^^^^^^^^^^^^^^^^^
../keras/keras/src/models/functional.py:647: in call
    return operation(*args, **kwargs)
           ^^^^^^^^^^^^^^^^^^^^^^^^^^
../keras/keras/src/utils/traceback_utils.py:113: in error_handler
    return fn(*args, **kwargs)
           ^^^^^^^^^^^^^^^^^^^
../keras/keras/src/layers/layer.py:959: in __call__
    outputs = super().__call__(*args, **kwargs)
              ^^^^^^^^^^^^^^^^^^^^^^^^^^^^^^^^^
../keras-hub-test-env/lib/python3.12/site-packages/torch/nn/modules/module.py:1775: in _wrapped_call_impl
    return self._call_impl(*args, **kwargs)
           ^^^^^^^^^^^^^^^^^^^^^^^^^^^^^^^^
../keras-hub-test-env/lib/python3.12/site-packages/torch/nn/modules/module.py:1786: in _call_impl
    return forward_call(*args, **kwargs)
           ^^^^^^^^^^^^^^^^^^^^^^^^^^^^^
../keras/keras/src/backend/torch/layer.py:41: in forward
    return Operation.__call__(self, *args, **kwargs)
           ^^^^^^^^^^^^^^^^^^^^^^^^^^^^^^^^^^^^^^^^^
../keras/keras/src/utils/traceback_utils.py:113: in error_handler
    return fn(*args, **kwargs)
           ^^^^^^^^^^^^^^^^^^^
../keras/keras/src/ops/operation.py:77: in __call__
    return self.call(*args, **kwargs)
           ^^^^^^^^^^^^^^^^^^^^^^^^^^
keras_hub/src/models/sam3/sam3_geometry_encoder.py:428: in call
    prompt_embeds, prompt_mask = ops.cond(
../keras/keras/src/ops/core.py:1131: in cond
    return Cond()(pred, true_fn, false_fn)
           ^^^^^^^^^^^^^^^^^^^^^^^^^^^^^^^
../keras/keras/src/utils/traceback_utils.py:113: in error_handler
    return fn(*args, **kwargs)
           ^^^^^^^^^^^^^^^^^^^
../keras/keras/src/ops/core.py:1088: in __call__
    return call_fn(*args, **kwargs)
           ^^^^^^^^^^^^^^^^^^^^^^^^
../keras/keras/src/ops/core.py:1077: in call_fn
    return self.call(*args, **kwargs)
           ^^^^^^^^^^^^^^^^^^^^^^^^^^
../keras/keras/src/ops/core.py:1091: in call
    return backend.core.cond(pred, true_fn, false_fn)
           ^^^^^^^^^^^^^^^^^^^^^^^^^^^^^^^^^^^^^^^^^^
../keras/keras/src/backend/torch/core.py:377: in cond
    return false_fn()
           ^^^^^^^^^^
keras_hub/src/models/sam3/sam3_geometry_encoder.py:431: in <lambda>
    lambda: self._encode_boxes(
keras_hub/src/models/sam3/sam3_geometry_encoder.py:358: in _encode_boxes
    sampled_features = roi_align(
keras_hub/src/models/sam3/roi_align.py:138: in roi_align
    return roi_align_torch(
keras_hub/src/models/sam3/roi_align.py:101: in roi_align_torch
    import torchvision
../keras-hub-test-env/lib/python3.12/site-packages/torchvision/__init__.py:10: in <module>
    from torchvision import _meta_registrations, datasets, io, models, ops, transforms, utils  # usort:skip
    ^^^^^^^^^^^^^^^^^^^^^^^^^^^^^^^^^^^^^^^^^^^^^^^^^^^^^^^^^^^^^^^^^^^^^^^^^^^^^^^^^^^^^^^^^
../keras-hub-test-env/lib/python3.12/site-packages/torchvision/_meta_registrations.py:163: in <module>
    @torch.library.register_fake("torchvision::nms")
     ^^^^^^^^^^^^^^^^^^^^^^^^^^^^^^^^^^^^^^^^^^^^^^^
../keras-hub-test-env/lib/python3.12/site-packages/torch/library.py:1063: in register
    use_lib._register_fake(
../keras-hub-test-env/lib/python3.12/site-packages/torch/library.py:211: in _register_fake
    handle = entry.fake_impl.register(
_ _ _ _ _ _ _ _ _ _ _ _ _ _ _ _ _ _ _ _ _ _ _ _ _ _ _ _ _ _ _ _ _ _ _ _ _ _ _ _ 

self = <torch._library.fake_impl.FakeImplHolder object at 0x3a3941eb0>
func = <function meta_nms at 0x3e2e3ba60>
source = '/Users/hellorahul/Projects/keras-hub-test-env/lib/python3.12/site-packages/torchvision/_meta_registrations.py:163'
lib = Library(kind=FRAGMENT, ns=torchvision, dispatch_key=)>

    def register(
        self, func: Callable, source: str, lib, *, allow_override=False
    ) -> RegistrationHandle:
        """Register an fake impl.
    
        Returns a RegistrationHandle that one can use to de-register this
        fake impl.
        """
    
        if not allow_override:
            if self.kernel is not None:
                raise RuntimeError(
                    f"register_fake(...): the operator {self.qualname} "
                    f"already has an fake impl registered at "
                    f"{self.kernel.source}."
                )
>           if torch._C._dispatch_has_kernel_for_dispatch_key(self.qualname, "Meta"):
               ^^^^^^^^^^^^^^^^^^^^^^^^^^^^^^^^^^^^^^^^^^^^^^^^^^^^^^^^^^^^^^^^^^^^^
E           RuntimeError: operator torchvision::nms does not exist

../keras-hub-test-env/lib/python3.12/site-packages/torch/_library/fake_impl.py:50: RuntimeError
______________________ VAEBackboneTest.test_litert_export ______________________

model = <VAEBackbone name=vae_backbone, built=True>
filepath = '/var/folders/kk/6bvt2y611ns5qk0zdmww21x801b8p6/T/tmpstn6hcac/model.tflite'
input_signature = [InputSpec(dtype=float32, shape=(2, 64, 64, 3), ndim=4)]
verbose = None, kwargs = {}
litert_torch = <module 'litert_torch' from '/Users/hellorahul/Projects/keras-hub-test-env/lib/python3.12/site-packages/litert_torch/__init__.py'>
torch = <module 'torch' from '/Users/hellorahul/Projects/keras-hub-test-env/lib/python3.12/site-packages/torch/__init__.py'>
original_devices = {('var', 'decoder/block_0_0/conv1/bias'): 'mps:0', ('var', 'decoder/block_0_0/conv1/kernel'): 'mps:0', ('var', 'decoder/block_0_0/conv2/bias'): 'mps:0', ('var', 'decoder/block_0_0/conv2/kernel'): 'mps:0', ...}
device_scope = <function device_scope at 0x146833060>
sample_inputs = (tensor([[[[1., 1., 1.],
          [1., 1., 1.],
          [1., 1., 1.],
          ...,
          [1., 1., 1.],
          [1., 1., 1.],
          [1., 1., 1.]],

         [[1., 1., 1.],
          [1., 1., 1.],
          [1., 1., 1.],
          ...,
          [1., 1., 1.],
          [1., 1., 1.],
          [1., 1., 1.]],

         [[1., 1., 1.],
          [1., 1., 1.],
          [1., 1., 1.],
          ...,
          [1., 1., 1.],
          [1., 1., 1.],
          [1., 1., 1.]],

         ...,

         [[1., 1., 1.],
          [1., 1., 1.],
          [1., 1., 1.],
          ...,
          [1., 1., 1.],
          [1., 1., 1.],
          [1., 1., 1.]],

         [[1., 1., 1.],
          [1., 1., 1.],
          [1., 1., 1.],
          ...,
          [1., 1., 1.],
          [1., 1., 1.],
          [1., 1., 1.]],

         [[1., 1., 1.],
          [1., 1., 1.],
          [1., 1., 1.],
          ...,
          [1., 1., 1.],
          [1., 1., 1.],
          [1., 1., 1.]]],


        [[[1., 1., 1.],
          [1., 1., 1.],
          [1., 1., 1.],
          ...,
          [1., 1., 1.],
          [1., 1., 1.],
          [1., 1., 1.]],

         [[1., 1., 1.],
          [1., 1., 1.],
          [1., 1., 1.],
          ...,
          [1., 1., 1.],
          [1., 1., 1.],
          [1., 1., 1.]],

         [[1., 1., 1.],
          [1., 1., 1.],
          [1., 1., 1.],
          ...,
          [1., 1., 1.],
          [1., 1., 1.],
          [1., 1., 1.]],

         ...,

         [[1., 1., 1.],
          [1., 1., 1.],
          [1., 1., 1.],
          ...,
          [1., 1., 1.],
          [1., 1., 1.],
          [1., 1., 1.]],

         [[1., 1., 1.],
          [1., 1., 1.],
          [1., 1., 1.],
          ...,
          [1., 1., 1.],
          [1., 1., 1.],
          [1., 1., 1.]],

         [[1., 1., 1.],
          [1., 1., 1.],
          [1., 1., 1.],
          ...,
          [1., 1., 1.],
          [1., 1., 1.],
          [1., 1., 1.]]]]),)
litert_torch_kwargs = {}

    def export_litert_via_torch(
        model, filepath, input_signature=None, verbose=None, **kwargs
    ):
        """Export Keras model to LiteRT via PyTorch backend.
    
        This function handles the complete conversion pipeline:
        1. Move model to CPU (required for portable ops)
        2. Register decompositions for unsupported operations
        3. Patch VHLO version for TFLite converter compatibility
        4. Convert model using litert_torch
        5. Restore model to original device
    
        Args:
            model: Keras model to export.
            filepath: Path to save the .tflite model.
            input_signature: Optional input specification.
            verbose: Whether to print export messages.
            **kwargs: Additional arguments for litert_torch conversion.
    
        Returns:
            Path to the exported model.
        """
        try:
            import litert_torch
            import torch
        except ImportError:
            raise ImportError(
                "To export to LiteRT with the PyTorch backend, "
                "you must install the `litert-torch` package. "
                "Install via: pip install litert-torch"
            )
    
        from keras.src.export.export_utils import convert_spec_to_tensor
    
        # Track original devices for restoration
        original_devices = {}
    
        # Step 1: Move model to CPU for portable export
        _move_model_to_cpu(model, original_devices, torch)
    
        # Use CPU device scope for all conversions
        from keras.src.backend.torch.core import device_scope
    
        with device_scope("cpu"):
            # Step 2: Setup decompositions and version compatibility
            _register_litert_decompositions(torch, litert_torch)
            _patch_vhlo_target_version()
    
            # Step 3: Prepare sample inputs
            if input_signature is None:
                input_signature = get_input_signature(model)
    
            sample_inputs = tree.map_structure(
                lambda x: convert_spec_to_tensor(x, replace_none_number=1),
                input_signature,
            )
            sample_inputs = tree.map_structure(
                lambda t: t.cpu() if hasattr(t, "cpu") else t,
                sample_inputs,
            )
            sample_inputs = tuple(sample_inputs)
    
            # Step 4: Set model to eval mode
            if hasattr(model, "eval"):
                model.eval()
    
            # Step 5: Convert to LiteRT
            litert_torch_kwargs = _prepare_litert_kwargs(kwargs, litert_torch)
    
            try:
                try:
>                   edge_model = litert_torch.convert(
                        model, sample_inputs, **litert_torch_kwargs
                    )

../keras/keras/src/export/litert.py:340: 
_ _ _ _ _ _ _ _ _ _ _ _ _ _ _ _ _ _ _ _ _ _ _ _ _ _ _ _ _ _ _ _ _ _ _ _ _ _ _ _ 
../keras-hub-test-env/lib/python3.12/site-packages/litert_torch/_convert/converter.py:315: in convert
    return Converter().convert(
../keras-hub-test-env/lib/python3.12/site-packages/litert_torch/_convert/converter.py:203: in convert
    converted_model = conversion.convert_signatures(
../keras-hub-test-env/lib/python3.12/site-packages/litert_torch/_convert/conversion.py:152: in convert_signatures
    tflite_model = lowertools.exported_programs_to_tflite(
../keras-hub-test-env/lib/python3.12/site-packages/litert_torch/lowertools/_shim.py:80: in exported_programs_to_tflite
    return utils.merged_bundle_to_tfl_model(
../keras-hub-test-env/lib/python3.12/site-packages/litert_torch/lowertools/odml_torch_utils.py:208: in merged_bundle_to_tfl_model
    tflite_model = converter.convert()
                   ^^^^^^^^^^^^^^^^^^^
../keras-hub-test-env/lib/python3.12/site-packages/tensorflow/lite/python/lite.py:1250: in wrapper
    return self._convert_and_export_metrics(convert_func, *args, **kwargs)
           ^^^^^^^^^^^^^^^^^^^^^^^^^^^^^^^^^^^^^^^^^^^^^^^^^^^^^^^^^^^^^^^
../keras-hub-test-env/lib/python3.12/site-packages/tensorflow/lite/python/lite.py:1202: in _convert_and_export_metrics
    result = convert_func(self, *args, **kwargs)
             ^^^^^^^^^^^^^^^^^^^^^^^^^^^^^^^^^^^
../keras-hub-test-env/lib/python3.12/site-packages/tensorflow/lite/python/lite.py:1586: in convert
    return self._convert_from_saved_model(graph_def)
           ^^^^^^^^^^^^^^^^^^^^^^^^^^^^^^^^^^^^^^^^^
../keras-hub-test-env/lib/python3.12/site-packages/tensorflow/lite/python/lite.py:1444: in _convert_from_saved_model
    result = _convert_saved_model(**converter_kwargs)
             ^^^^^^^^^^^^^^^^^^^^^^^^^^^^^^^^^^^^^^^^
../keras-hub-test-env/lib/python3.12/site-packages/tensorflow/lite/python/convert_phase.py:212: in wrapper
    raise converter_error from None  # Re-throws the exception.
    ^^^^^^^^^^^^^^^^^^^^^^^^^^^^^^^
../keras-hub-test-env/lib/python3.12/site-packages/tensorflow/lite/python/convert_phase.py:205: in wrapper
    return func(*args, **kwargs)
           ^^^^^^^^^^^^^^^^^^^^^
../keras-hub-test-env/lib/python3.12/site-packages/tensorflow/lite/python/convert.py:901: in convert_saved_model
    data = convert(
_ _ _ _ _ _ _ _ _ _ _ _ _ _ _ _ _ _ _ _ _ _ _ _ _ _ _ _ _ _ _ _ _ _ _ _ _ _ _ _ 

model_flags = allow_nonexistent_arrays: false
change_concat_input_ranges: false
saved_model_dir: "/var/folders/kk/6bvt2y611ns5qk0zdmww21x801b8p6/T/tmp5dbd_i0t"
saved_model_version: 1
saved_model_tags: "serve"
saved_model_exported_names: "serving_default"

conversion_flags = input_format: TENSORFLOW_GRAPHDEF
output_format: TFLITE
inference_type: FLOAT
reorder_across_fake_quant: false
allow_custom_ops: false
inference_input_type: FLOAT
drop_control_dependency: true
dump_graphviz_include_video: false
post_training_quantize: false
quantize_to_float16: false
enable_tflite_resource_variables: true
unfold_batchmatmul: false
lower_tensor_list_ops: true
allow_bfloat16: false
allow_all_select_tf_ops: false
unfold_large_splat_constant: false
default_to_single_batch_in_tensor_list_ops: false
disable_per_channel_quantization: false
enable_mlir_dynamic_range_quantizer: false
disable_infer_tensor_range: false
use_fake_quant_num_bits: false
enable_dynamic_update_slice: true
preserve_assert_op: false
guarantee_all_funcs_one_use: false
enable_mlir_variable_quantization: false
disable_fuse_mul_and_fc: false
use_buffer_offset: false
legalize_custom_tensor_list_ops: false
reduce_type_precision: false
disable_per_channel_quantization_for_dense_layers: false
enable_composite_direct_lowering: true
model_origin_framework: PYTORCH
canonicalizing_inf_as_min_max_float: true
serialize_debug_metadata: false
strict_qdq_mode: false

input_data_str = None, debug_info_str = None

    def convert(
        model_flags: _model_flags_pb2.ModelFlags,
        conversion_flags: _conversion_flags_pb2.ConverterFlags,
        input_data_str: Optional[str] = None,
        debug_info_str: Optional[str] = None,
    ):
      """Converts `input_data_str` to a TFLite model.
    
      Args:
        model_flags: Proto describing model properties, see `model_flags.proto`.
        conversion_flags: Proto describing conversion properties, see
          `compiler/mlir/lite/converter_flags.proto`.
        input_data_str: Input data in serialized form (e.g. a graphdef is common, or
          it can be hlo text or proto)
        debug_info_str: Serialized `GraphDebugInfo` proto describing logging
          information.
    
      Returns:
        Converted model in serialized form (e.g. a TFLITE model is common).
      Raises:
        ConverterError: When conversion fails in TFLiteConverter, usually due to
          ops not being supported.
      """
    
      try:
        return wrap_converter.wrapped_convert(
            model_flags.SerializeToString(),
            conversion_flags.SerializeToString(),
            input_data_str,
            debug_info_str,
        )
      except Exception as e:
        converter_error = ConverterError(str(e))
    
        for error_data in _metrics_wrapper.retrieve_collected_errors():
          converter_error.append_error(error_data)
          # Seldom we encounter the case where an unsupported
          # `StatefulPartitionedCallOp` is not inlined and remains in the final
          # IR. If this occurs we can set `guarantee_all_funcs_one_use` and retry.
          # This makes the converter copy functions definitions called by
          # multiple StatefulPartitionedCall, thus allowing them to be properly
          # inlined.
          if (
              error_data.error_code
              == converter_error_data_pb2.ConverterErrorData.ERROR_STATEFUL_PARTITIONED_CALL_IN_FINAL_IR
              and not conversion_flags.guarantee_all_funcs_one_use
          ):
            conversion_flags.guarantee_all_funcs_one_use = True
            return convert(
                model_flags,
                conversion_flags,
                input_data_str,
                debug_info_str,
            )
>       raise converter_error
E       tensorflow.lite.python.convert_phase.ConverterError: /Users/hellorahul/Projects/keras/keras/src/backend/torch/layer.py:41:0: error: failed to legalize operation 'tfl.pow' that was explicitly marked illegal

../keras-hub-test-env/lib/python3.12/site-packages/tensorflow/lite/python/convert.py:350: ConverterError

The above exception was the direct cause of the following exception:

self = <keras_hub.src.models.vae.vae_backbone_test.VAEBackboneTest testMethod=test_litert_export>

    def test_litert_export(self):
>       self.run_litert_export_test(
            cls=VAEBackbone,
            init_kwargs=self.init_kwargs,
            input_data=self.input_data,
            comparison_mode="statistical",
            output_thresholds={"*": {"max": 3e-3, "mean": 3e-4}},
        )

keras_hub/src/models/vae/vae_backbone_test.py:38: 
_ _ _ _ _ _ _ _ _ _ _ _ _ _ _ _ _ _ _ _ _ _ _ _ _ _ _ _ _ _ _ _ _ _ _ _ _ _ _ _ 
keras_hub/src/tests/test_case.py:673: in run_litert_export_test
    model.export(export_path, format="litert", **export_kwargs)
../keras/keras/src/models/model.py:823: in export
    export_litert(
../keras/keras/src/export/litert.py:27: in export_litert
    return export_litert_via_torch(
_ _ _ _ _ _ _ _ _ _ _ _ _ _ _ _ _ _ _ _ _ _ _ _ _ _ _ _ _ _ _ _ _ _ _ _ _ _ _ _ 

model = <VAEBackbone name=vae_backbone, built=True>
filepath = '/var/folders/kk/6bvt2y611ns5qk0zdmww21x801b8p6/T/tmpstn6hcac/model.tflite'
input_signature = [InputSpec(dtype=float32, shape=(2, 64, 64, 3), ndim=4)]
verbose = None, kwargs = {}
litert_torch = <module 'litert_torch' from '/Users/hellorahul/Projects/keras-hub-test-env/lib/python3.12/site-packages/litert_torch/__init__.py'>
torch = <module 'torch' from '/Users/hellorahul/Projects/keras-hub-test-env/lib/python3.12/site-packages/torch/__init__.py'>
original_devices = {('var', 'decoder/block_0_0/conv1/bias'): 'mps:0', ('var', 'decoder/block_0_0/conv1/kernel'): 'mps:0', ('var', 'decoder/block_0_0/conv2/bias'): 'mps:0', ('var', 'decoder/block_0_0/conv2/kernel'): 'mps:0', ...}
device_scope = <function device_scope at 0x146833060>
sample_inputs = (tensor([[[[1., 1., 1.],
          [1., 1., 1.],
          [1., 1., 1.],
          ...,
          [1., 1., 1.],
          [1., 1., 1.],
          [1., 1., 1.]],

         [[1., 1., 1.],
          [1., 1., 1.],
          [1., 1., 1.],
          ...,
          [1., 1., 1.],
          [1., 1., 1.],
          [1., 1., 1.]],

         [[1., 1., 1.],
          [1., 1., 1.],
          [1., 1., 1.],
          ...,
          [1., 1., 1.],
          [1., 1., 1.],
          [1., 1., 1.]],

         ...,

         [[1., 1., 1.],
          [1., 1., 1.],
          [1., 1., 1.],
          ...,
          [1., 1., 1.],
          [1., 1., 1.],
          [1., 1., 1.]],

         [[1., 1., 1.],
          [1., 1., 1.],
          [1., 1., 1.],
          ...,
          [1., 1., 1.],
          [1., 1., 1.],
          [1., 1., 1.]],

         [[1., 1., 1.],
          [1., 1., 1.],
          [1., 1., 1.],
          ...,
          [1., 1., 1.],
          [1., 1., 1.],
          [1., 1., 1.]]],


        [[[1., 1., 1.],
          [1., 1., 1.],
          [1., 1., 1.],
          ...,
          [1., 1., 1.],
          [1., 1., 1.],
          [1., 1., 1.]],

         [[1., 1., 1.],
          [1., 1., 1.],
          [1., 1., 1.],
          ...,
          [1., 1., 1.],
          [1., 1., 1.],
          [1., 1., 1.]],

         [[1., 1., 1.],
          [1., 1., 1.],
          [1., 1., 1.],
          ...,
          [1., 1., 1.],
          [1., 1., 1.],
          [1., 1., 1.]],

         ...,

         [[1., 1., 1.],
          [1., 1., 1.],
          [1., 1., 1.],
          ...,
          [1., 1., 1.],
          [1., 1., 1.],
          [1., 1., 1.]],

         [[1., 1., 1.],
          [1., 1., 1.],
          [1., 1., 1.],
          ...,
          [1., 1., 1.],
          [1., 1., 1.],
          [1., 1., 1.]],

         [[1., 1., 1.],
          [1., 1., 1.],
          [1., 1., 1.],
          ...,
          [1., 1., 1.],
          [1., 1., 1.],
          [1., 1., 1.]]]]),)
litert_torch_kwargs = {}

    def export_litert_via_torch(
        model, filepath, input_signature=None, verbose=None, **kwargs
    ):
        """Export Keras model to LiteRT via PyTorch backend.
    
        This function handles the complete conversion pipeline:
        1. Move model to CPU (required for portable ops)
        2. Register decompositions for unsupported operations
        3. Patch VHLO version for TFLite converter compatibility
        4. Convert model using litert_torch
        5. Restore model to original device
    
        Args:
            model: Keras model to export.
            filepath: Path to save the .tflite model.
            input_signature: Optional input specification.
            verbose: Whether to print export messages.
            **kwargs: Additional arguments for litert_torch conversion.
    
        Returns:
            Path to the exported model.
        """
        try:
            import litert_torch
            import torch
        except ImportError:
            raise ImportError(
                "To export to LiteRT with the PyTorch backend, "
                "you must install the `litert-torch` package. "
                "Install via: pip install litert-torch"
            )
    
        from keras.src.export.export_utils import convert_spec_to_tensor
    
        # Track original devices for restoration
        original_devices = {}
    
        # Step 1: Move model to CPU for portable export
        _move_model_to_cpu(model, original_devices, torch)
    
        # Use CPU device scope for all conversions
        from keras.src.backend.torch.core import device_scope
    
        with device_scope("cpu"):
            # Step 2: Setup decompositions and version compatibility
            _register_litert_decompositions(torch, litert_torch)
            _patch_vhlo_target_version()
    
            # Step 3: Prepare sample inputs
            if input_signature is None:
                input_signature = get_input_signature(model)
    
            sample_inputs = tree.map_structure(
                lambda x: convert_spec_to_tensor(x, replace_none_number=1),
                input_signature,
            )
            sample_inputs = tree.map_structure(
                lambda t: t.cpu() if hasattr(t, "cpu") else t,
                sample_inputs,
            )
            sample_inputs = tuple(sample_inputs)
    
            # Step 4: Set model to eval mode
            if hasattr(model, "eval"):
                model.eval()
    
            # Step 5: Convert to LiteRT
            litert_torch_kwargs = _prepare_litert_kwargs(kwargs, litert_torch)
    
            try:
                try:
                    edge_model = litert_torch.convert(
                        model, sample_inputs, **litert_torch_kwargs
                    )
                except Exception as e:
>                   raise RuntimeError(
                        f"Failed to convert PyTorch model to LiteRT. "
                        f"Common causes: unsupported operations, dynamic shapes, "
                        f"or complex control flow. Original error: {e}"
                    ) from e
E                   RuntimeError: Failed to convert PyTorch model to LiteRT. Common causes: unsupported operations, dynamic shapes, or complex control flow. Original error: /Users/hellorahul/Projects/keras/keras/src/backend/torch/layer.py:41:0: error: failed to legalize operation 'tfl.pow' that was explicitly marked illegal

../keras/keras/src/export/litert.py:344: RuntimeError
----------------------------- Captured stderr call -----------------------------
W0000 00:00:1771508556.860778   95144 tf_tfl_flatbuffer_helpers.cc:365] Ignored output_format.
W0000 00:00:1771508556.860830   95144 tf_tfl_flatbuffer_helpers.cc:368] Ignored drop_control_dependency.
loc("keras_hub.src.models.vae.vae_backbone.VAEBackbone;"("square"("/Users/hellorahul/Projects/keras/keras/src/backend/torch/layer.py":41:0))): error: failed to legalize operation 'tfl.pow' that was explicitly marked illegal
=========================== short test summary info ============================
FAILED keras_hub/src/models/gpt_oss/gpt_oss_causal_lm_test.py::GptOssCausalLMTest::test_litert_export - RuntimeError: Failed to convert PyTorch model to LiteRT. Common causes: unsupported operations, dynamic shapes, or complex control flow. Original error: NHWC node rewriter not found: amax
FAILED keras_hub/src/models/flux/flux_backbone_test.py::FluxBackboneTest::test_litert_export - RuntimeError: Failed to convert PyTorch model to LiteRT. Common causes: unsupported operations, dynamic shapes, or complex control flow. Original error: Could not guard on data-dependent expression Eq((u0//12), 0) (unhinted: Eq((u0//12), 0)).  (Size-like symbols: u0)

consider using data-dependent friendly APIs such as guard_or_false, guard_or_true and statically_known_trueCaused by: (_prims_common/__init__.py:1995 in are_strides_like_channels_last)
For more information, run with TORCH_LOGS="dynamic"
For extended logs when we create symbols, also add TORCHDYNAMO_EXTENDED_DEBUG_CREATE_SYMBOL="u0"
If you suspect the guard was triggered from C++, add TORCHDYNAMO_EXTENDED_DEBUG_CPP=1
For more debugging help, see https://docs.google.com/document/d/1HSuTTVvYH1pTew89Rtpeu84Ht3nQEFTYhAX3Ypa_xJs/edit?usp=sharing

For C++ stack trace, run with TORCHDYNAMO_EXTENDED_DEBUG_CPP=1

The following call raised this error:
  File "/Users/hellorahul/Projects/keras/keras/src/backend/torch/numpy.py", line 1618, in reshape
    return torch.reshape(x, newshape)

To fix the error, insert one of the following checks before this call:
  1. torch._check((x.shape[2] // 12) == 0)
  2. torch._check((x.shape[2] // 12) != 0)

(These suggested fixes were derived by replacing `u0` with x.shape[2] in Eq((u0//12), 0) and its negation.)

The error above occurred when calling torch.export.export. If you would like to view some more information about this error, and get a list of all other errors that may occur in your export call, you can replace your `export()` call with `draft_export()`.
FAILED keras_hub/src/models/f_net/f_net_text_classifier_test.py::FNetTextClassifierTest::test_litert_export - RuntimeError: Failed to convert PyTorch model to LiteRT. Common causes: unsupported operations, dynamic shapes, or complex control flow. Original error: Lowering not found: aten.complex.default

While executing %complex_1 : [num_users=1] = call_function[target=torch.ops.aten.complex.default](args = (%add_4, %full_like), kwargs = {})
Original traceback:
File "/Users/hellorahul/Projects/keras/keras/src/backend/torch/layer.py", line 41, in forward
    return Operation.__call__(self, *args, **kwargs)
  File "/Users/hellorahul/Projects/keras/keras/src/backend/torch/layer.py", line 41, in forward
    return Operation.__call__(self, *args, **kwargs)
  File "/Users/hellorahul/Projects/keras/keras/src/backend/torch/layer.py", line 41, in forward
    return Operation.__call__(self, *args, **kwargs)
Use tlparse to see full graph. (https://github.com/pytorch/tlparse?tab=readme-ov-file#tlparse-parse-structured-pt2-logs)
FAILED keras_hub/src/models/d_fine/d_fine_object_detector_test.py::DFineObjectDetectorTest::test_litert_export - RuntimeError: Failed to convert PyTorch model to LiteRT. Common causes: unsupported operations, dynamic shapes, or complex control flow. Original error: Could not guard on data-dependent expression Ne(Mod(u2, 16), 0) (unhinted: Ne(Mod(u2, 16), 0)).  (Size-like symbols: u2)

consider using data-dependent friendly APIs such as guard_or_false, guard_or_true and statically_known_trueCaused by: (keras/keras/src/backend/torch/nn.py:575 in conv)
For more information, run with TORCH_LOGS="dynamic"
For extended logs when we create symbols, also add TORCHDYNAMO_EXTENDED_DEBUG_CREATE_SYMBOL="u2"
If you suspect the guard was triggered from C++, add TORCHDYNAMO_EXTENDED_DEBUG_CPP=1
For more debugging help, see https://docs.google.com/document/d/1HSuTTVvYH1pTew89Rtpeu84Ht3nQEFTYhAX3Ypa_xJs/edit?usp=sharing

For C++ stack trace, run with TORCHDYNAMO_EXTENDED_DEBUG_CPP=1

The error above occurred when calling torch.export.export. If you would like to view some more information about this error, and get a list of all other errors that may occur in your export call, you can replace your `export()` call with `draft_export()`.
FAILED keras_hub/src/models/sam3/sam3_pc_image_segmenter_test.py::SAM3PromptableConceptImageSegmenterTest::test_litert_export - RuntimeError: operator torchvision::nms does not exist
FAILED keras_hub/src/models/vae/vae_backbone_test.py::VAEBackboneTest::test_litert_export - RuntimeError: Failed to convert PyTorch model to LiteRT. Common causes: unsupported operations, dynamic shapes, or complex control flow. Original error: /Users/hellorahul/Projects/keras/keras/src/backend/torch/layer.py:41:0: error: failed to legalize operation 'tfl.pow' that was explicitly marked illegal
===== 6 failed, 55 passed, 8 skipped, 454 deselected in 297.08s (0:04:57) ======
